{"format": "graph-model", "generatedBy": "2.4.0", "convertedBy": "TensorFlow.js Converter v2.8.1", "signature": {"inputs": {"inputs:0": {"name": "inputs:0", "dtype": "DT_FLOAT", "tensorShape": {"dim": [{"size": "-1"}, {"size": "-1"}]}}}, "outputs": {"Identity:0": {"name": "Identity:0", "dtype": "DT_FLOAT", "tensorShape": {"dim": [{"size": "-1"}, {"size": "7"}]}}}}, "modelTopology": {"node": [{"name": "StatefulPartitionedCall/transformer/dense_6/Tensordot/Const", "op": "Const", "attr": {"value": {"tensor": {"dtype": "DT_INT32", "tensorShape": {"dim": [{"size": "1"}]}}}, "dtype": {"type": "DT_INT32"}}}, {"name": "StatefulPartitionedCall/transformer/dense_6/Tensordot/axes", "op": "Const", "attr": {"value": {"tensor": {"dtype": "DT_INT32", "tensorShape": {"dim": [{"size": "1"}]}}}, "dtype": {"type": "DT_INT32"}}}, {"name": "StatefulPartitionedCall/transformer/dense_6/Tensordot/GatherV2_1/axis", "op": "Const", "attr": {"value": {"tensor": {"dtype": "DT_INT32", "tensorShape": {}}}, "dtype": {"type": "DT_INT32"}}}, {"name": "StatefulPartitionedCall/transformer/dense_6/Tensordot/Const_1", "op": "Const", "attr": {"dtype": {"type": "DT_INT32"}, "value": {"tensor": {"dtype": "DT_INT32", "tensorShape": {"dim": [{"size": "1"}]}}}}}, {"name": "StatefulPartitionedCall/transformer/dense_6/Tensordot/ReadVariableOp", "op": "Const", "attr": {"value": {"tensor": {"dtype": "DT_FLOAT", "tensorShape": {"dim": [{"size": "8"}, {"size": "8"}]}}}, "dtype": {"type": "DT_FLOAT"}}}, {"name": "StatefulPartitionedCall/transformer/encoder/encoder_layer_0/layer_normalization_1/batchnorm/ReadVariableOp", "op": "Const", "attr": {"dtype": {"type": "DT_FLOAT"}, "value": {"tensor": {"dtype": "DT_FLOAT", "tensorShape": {"dim": [{"size": "8"}]}}}}}, {"name": "StatefulPartitionedCall/transformer/encoder/encoder_layer_0/dense_5/Tensordot/Const", "op": "Const", "attr": {"dtype": {"type": "DT_INT32"}, "value": {"tensor": {"dtype": "DT_INT32", "tensorShape": {"dim": [{"size": "1"}]}}}}}, {"name": "StatefulPartitionedCall/transformer/encoder/encoder_layer_0/dense_5/Tensordot/axes", "op": "Const", "attr": {"value": {"tensor": {"dtype": "DT_INT32", "tensorShape": {"dim": [{"size": "1"}]}}}, "dtype": {"type": "DT_INT32"}}}, {"name": "StatefulPartitionedCall/transformer/encoder/encoder_layer_0/dense_5/Tensordot/GatherV2_1/axis", "op": "Const", "attr": {"value": {"tensor": {"dtype": "DT_INT32", "tensorShape": {}}}, "dtype": {"type": "DT_INT32"}}}, {"name": "StatefulPartitionedCall/transformer/encoder/encoder_layer_0/dense_5/Tensordot/Const_1", "op": "Const", "attr": {"value": {"tensor": {"dtype": "DT_INT32", "tensorShape": {"dim": [{"size": "1"}]}}}, "dtype": {"type": "DT_INT32"}}}, {"name": "StatefulPartitionedCall/transformer/encoder/encoder_layer_0/dense_5/Tensordot/ReadVariableOp", "op": "Const", "attr": {"dtype": {"type": "DT_FLOAT"}, "value": {"tensor": {"dtype": "DT_FLOAT", "tensorShape": {"dim": [{"size": "8"}, {"size": "8"}]}}}}}, {"name": "StatefulPartitionedCall/transformer/encoder/encoder_layer_0/dense_4/Tensordot/Const", "op": "Const", "attr": {"value": {"tensor": {"dtype": "DT_INT32", "tensorShape": {"dim": [{"size": "1"}]}}}, "dtype": {"type": "DT_INT32"}}}, {"name": "StatefulPartitionedCall/transformer/encoder/encoder_layer_0/dense_4/Tensordot/axes", "op": "Const", "attr": {"value": {"tensor": {"dtype": "DT_INT32", "tensorShape": {"dim": [{"size": "1"}]}}}, "dtype": {"type": "DT_INT32"}}}, {"name": "StatefulPartitionedCall/transformer/encoder/encoder_layer_0/dense_4/Tensordot/GatherV2_1/axis", "op": "Const", "attr": {"value": {"tensor": {"dtype": "DT_INT32", "tensorShape": {}}}, "dtype": {"type": "DT_INT32"}}}, {"name": "StatefulPartitionedCall/transformer/encoder/encoder_layer_0/dense_4/Tensordot/Const_1", "op": "Const", "attr": {"value": {"tensor": {"dtype": "DT_INT32", "tensorShape": {"dim": [{"size": "1"}]}}}, "dtype": {"type": "DT_INT32"}}}, {"name": "StatefulPartitionedCall/transformer/encoder/encoder_layer_0/dense_4/Tensordot/ReadVariableOp", "op": "Const", "attr": {"value": {"tensor": {"dtype": "DT_FLOAT", "tensorShape": {"dim": [{"size": "8"}, {"size": "8"}]}}}, "dtype": {"type": "DT_FLOAT"}}}, {"name": "StatefulPartitionedCall/transformer/encoder/encoder_layer_0/layer_normalization/batchnorm/ReadVariableOp", "op": "Const", "attr": {"value": {"tensor": {"dtype": "DT_FLOAT", "tensorShape": {"dim": [{"size": "8"}]}}}, "dtype": {"type": "DT_FLOAT"}}}, {"name": "StatefulPartitionedCall/transformer/encoder/encoder_layer_0/multihead_self_attention/dense_3/Tensordot/Const", "op": "Const", "attr": {"value": {"tensor": {"dtype": "DT_INT32", "tensorShape": {"dim": [{"size": "1"}]}}}, "dtype": {"type": "DT_INT32"}}}, {"name": "StatefulPartitionedCall/transformer/encoder/encoder_layer_0/multihead_self_attention/dense_3/Tensordot/axes", "op": "Const", "attr": {"dtype": {"type": "DT_INT32"}, "value": {"tensor": {"dtype": "DT_INT32", "tensorShape": {"dim": [{"size": "1"}]}}}}}, {"name": "StatefulPartitionedCall/transformer/encoder/encoder_layer_0/multihead_self_attention/dense_3/Tensordot/GatherV2_1/axis", "op": "Const", "attr": {"value": {"tensor": {"dtype": "DT_INT32", "tensorShape": {}}}, "dtype": {"type": "DT_INT32"}}}, {"name": "StatefulPartitionedCall/transformer/encoder/encoder_layer_0/multihead_self_attention/dense_3/Tensordot/Const_1", "op": "Const", "attr": {"value": {"tensor": {"dtype": "DT_INT32", "tensorShape": {"dim": [{"size": "1"}]}}}, "dtype": {"type": "DT_INT32"}}}, {"name": "StatefulPartitionedCall/transformer/encoder/encoder_layer_0/multihead_self_attention/dense_3/Tensordot/ReadVariableOp", "op": "Const", "attr": {"value": {"tensor": {"dtype": "DT_FLOAT", "tensorShape": {"dim": [{"size": "8"}, {"size": "8"}]}}}, "dtype": {"type": "DT_FLOAT"}}}, {"name": "StatefulPartitionedCall/transformer/encoder/encoder_layer_0/multihead_self_attention/dense/Tensordot/Const", "op": "Const", "attr": {"value": {"tensor": {"dtype": "DT_INT32", "tensorShape": {"dim": [{"size": "1"}]}}}, "dtype": {"type": "DT_INT32"}}}, {"name": "StatefulPartitionedCall/transformer/encoder/encoder_layer_0/multihead_self_attention/dense/Tensordot/axes", "op": "Const", "attr": {"value": {"tensor": {"dtype": "DT_INT32", "tensorShape": {"dim": [{"size": "1"}]}}}, "dtype": {"type": "DT_INT32"}}}, {"name": "StatefulPartitionedCall/transformer/encoder/encoder_layer_0/multihead_self_attention/dense/Tensordot/GatherV2_1/axis", "op": "Const", "attr": {"value": {"tensor": {"dtype": "DT_INT32", "tensorShape": {}}}, "dtype": {"type": "DT_INT32"}}}, {"name": "StatefulPartitionedCall/transformer/encoder/encoder_layer_0/multihead_self_attention/dense/Tensordot/Const_1", "op": "Const", "attr": {"value": {"tensor": {"dtype": "DT_INT32", "tensorShape": {"dim": [{"size": "1"}]}}}, "dtype": {"type": "DT_INT32"}}}, {"name": "StatefulPartitionedCall/transformer/encoder/encoder_layer_0/multihead_self_attention/dense/Tensordot/ReadVariableOp", "op": "Const", "attr": {"value": {"tensor": {"dtype": "DT_FLOAT", "tensorShape": {"dim": [{"size": "8"}, {"size": "8"}]}}}, "dtype": {"type": "DT_FLOAT"}}}, {"name": "StatefulPartitionedCall/transformer/encoder/encoder_layer_0/multihead_self_attention/dense/Tensordot/free", "op": "Const", "attr": {"value": {"tensor": {"dtype": "DT_INT32", "tensorShape": {"dim": [{"size": "2"}]}}}, "dtype": {"type": "DT_INT32"}}}, {"name": "StatefulPartitionedCall/transformer/encoder/encoder_layer_0/multihead_self_attention/dense/Tensordot/GatherV2/axis", "op": "Const", "attr": {"value": {"tensor": {"dtype": "DT_INT32", "tensorShape": {}}}, "dtype": {"type": "DT_INT32"}}}, {"name": "StatefulPartitionedCall/transformer/encoder/encoder_layer_0/multihead_self_attention/dense/Tensordot/Const_2", "op": "Const", "attr": {"value": {"tensor": {"dtype": "DT_INT32", "tensorShape": {"dim": [{"size": "1"}]}}}, "dtype": {"type": "DT_INT32"}}}, {"name": "StatefulPartitionedCall/transformer/encoder/encoder_layer_0/multihead_self_attention/dense/Tensordot/concat_1/axis", "op": "Const", "attr": {"value": {"tensor": {"dtype": "DT_INT32", "tensorShape": {}}}, "dtype": {"type": "DT_INT32"}}}, {"name": "StatefulPartitionedCall/transformer/encoder/encoder_layer_0/multihead_self_attention/dense/BiasAdd/ReadVariableOp", "op": "Const", "attr": {"value": {"tensor": {"dtype": "DT_FLOAT", "tensorShape": {"dim": [{"size": "8"}]}}}, "dtype": {"type": "DT_FLOAT"}}}, {"name": "StatefulPartitionedCall/transformer/encoder/encoder_layer_0/multihead_self_attention/Reshape/shape/1", "op": "Const", "attr": {"value": {"tensor": {"dtype": "DT_INT32", "tensorShape": {}}}, "dtype": {"type": "DT_INT32"}}}, {"name": "StatefulPartitionedCall/transformer/encoder/encoder_layer_0/multihead_self_attention/Reshape/shape/2", "op": "Const", "attr": {"value": {"tensor": {"dtype": "DT_INT32", "tensorShape": {}}}, "dtype": {"type": "DT_INT32"}}}, {"name": "StatefulPartitionedCall/transformer/encoder/encoder_layer_0/multihead_self_attention/Reshape/shape/3", "op": "Const", "attr": {"value": {"tensor": {"dtype": "DT_INT32", "tensorShape": {}}}, "dtype": {"type": "DT_INT32"}}}, {"name": "StatefulPartitionedCall/transformer/encoder/encoder_layer_0/multihead_self_attention/transpose/perm", "op": "Const", "attr": {"value": {"tensor": {"dtype": "DT_INT32", "tensorShape": {"dim": [{"size": "4"}]}}}, "dtype": {"type": "DT_INT32"}}}, {"name": "StatefulPartitionedCall/transformer/encoder/encoder_layer_0/multihead_self_attention/dense/Tensordot_1/Const", "op": "Const", "attr": {"value": {"tensor": {"dtype": "DT_INT32", "tensorShape": {"dim": [{"size": "1"}]}}}, "dtype": {"type": "DT_INT32"}}}, {"name": "StatefulPartitionedCall/transformer/encoder/encoder_layer_0/multihead_self_attention/dense/Tensordot_1/axes", "op": "Const", "attr": {"value": {"tensor": {"dtype": "DT_INT32", "tensorShape": {"dim": [{"size": "1"}]}}}, "dtype": {"type": "DT_INT32"}}}, {"name": "StatefulPartitionedCall/transformer/encoder/encoder_layer_0/multihead_self_attention/dense/Tensordot_1/GatherV2_1/axis", "op": "Const", "attr": {"value": {"tensor": {"dtype": "DT_INT32", "tensorShape": {}}}, "dtype": {"type": "DT_INT32"}}}, {"name": "StatefulPartitionedCall/transformer/encoder/encoder_layer_0/multihead_self_attention/dense/Tensordot_1/Const_1", "op": "Const", "attr": {"dtype": {"type": "DT_INT32"}, "value": {"tensor": {"dtype": "DT_INT32", "tensorShape": {"dim": [{"size": "1"}]}}}}}, {"name": "StatefulPartitionedCall/transformer/encoder/encoder_layer_0/multihead_self_attention/dense/Tensordot_1/ReadVariableOp", "op": "Const", "attr": {"value": {"tensor": {"dtype": "DT_FLOAT", "tensorShape": {"dim": [{"size": "8"}, {"size": "8"}]}}}, "dtype": {"type": "DT_FLOAT"}}}, {"name": "StatefulPartitionedCall/transformer/encoder/encoder_layer_0/multihead_self_attention/dense/Tensordot_1/free", "op": "Const", "attr": {"value": {"tensor": {"dtype": "DT_INT32", "tensorShape": {"dim": [{"size": "2"}]}}}, "dtype": {"type": "DT_INT32"}}}, {"name": "StatefulPartitionedCall/transformer/encoder/encoder_layer_0/multihead_self_attention/dense/Tensordot_1/GatherV2/axis", "op": "Const", "attr": {"dtype": {"type": "DT_INT32"}, "value": {"tensor": {"dtype": "DT_INT32", "tensorShape": {}}}}}, {"name": "StatefulPartitionedCall/transformer/encoder/encoder_layer_0/multihead_self_attention/dense/Tensordot_1/Const_2", "op": "Const", "attr": {"value": {"tensor": {"dtype": "DT_INT32", "tensorShape": {"dim": [{"size": "1"}]}}}, "dtype": {"type": "DT_INT32"}}}, {"name": "StatefulPartitionedCall/transformer/encoder/encoder_layer_0/multihead_self_attention/dense/Tensordot_1/concat_1/axis", "op": "Const", "attr": {"value": {"tensor": {"dtype": "DT_INT32", "tensorShape": {}}}, "dtype": {"type": "DT_INT32"}}}, {"name": "StatefulPartitionedCall/transformer/encoder/encoder_layer_0/multihead_self_attention/dense/BiasAdd_1/ReadVariableOp", "op": "Const", "attr": {"value": {"tensor": {"dtype": "DT_FLOAT", "tensorShape": {"dim": [{"size": "8"}]}}}, "dtype": {"type": "DT_FLOAT"}}}, {"name": "StatefulPartitionedCall/transformer/encoder/encoder_layer_0/multihead_self_attention/Reshape_1/shape/1", "op": "Const", "attr": {"value": {"tensor": {"dtype": "DT_INT32", "tensorShape": {}}}, "dtype": {"type": "DT_INT32"}}}, {"name": "StatefulPartitionedCall/transformer/encoder/encoder_layer_0/multihead_self_attention/Reshape_1/shape/2", "op": "Const", "attr": {"value": {"tensor": {"dtype": "DT_INT32", "tensorShape": {}}}, "dtype": {"type": "DT_INT32"}}}, {"name": "StatefulPartitionedCall/transformer/encoder/encoder_layer_0/multihead_self_attention/Reshape_1/shape/3", "op": "Const", "attr": {"value": {"tensor": {"dtype": "DT_INT32", "tensorShape": {}}}, "dtype": {"type": "DT_INT32"}}}, {"name": "StatefulPartitionedCall/transformer/encoder/encoder_layer_0/multihead_self_attention/transpose_1/perm", "op": "Const", "attr": {"value": {"tensor": {"dtype": "DT_INT32", "tensorShape": {"dim": [{"size": "4"}]}}}, "dtype": {"type": "DT_INT32"}}}, {"name": "StatefulPartitionedCall/transformer/encoder/encoder_layer_0/multihead_self_attention/strided_slice_1/stack", "op": "Const", "attr": {"value": {"tensor": {"dtype": "DT_INT32", "tensorShape": {"dim": [{"size": "1"}]}}}, "dtype": {"type": "DT_INT32"}}}, {"name": "StatefulPartitionedCall/transformer/encoder/encoder_layer_0/multihead_self_attention/strided_slice_1/stack_1", "op": "Const", "attr": {"value": {"tensor": {"dtype": "DT_INT32", "tensorShape": {"dim": [{"size": "1"}]}}}, "dtype": {"type": "DT_INT32"}}}, {"name": "StatefulPartitionedCall/transformer/encoder/encoder_layer_0/multihead_self_attention/strided_slice_1/stack_2", "op": "Const", "attr": {"value": {"tensor": {"dtype": "DT_INT32", "tensorShape": {"dim": [{"size": "1"}]}}}, "dtype": {"type": "DT_INT32"}}}, {"name": "StatefulPartitionedCall/transformer/padding_mask/Equal/y", "op": "Const", "attr": {"value": {"tensor": {"dtype": "DT_FLOAT", "tensorShape": {}}}, "dtype": {"type": "DT_FLOAT"}}}, {"name": "StatefulPartitionedCall/transformer/padding_mask/strided_slice/stack", "op": "Const", "attr": {"value": {"tensor": {"dtype": "DT_INT32", "tensorShape": {"dim": [{"size": "4"}]}}}, "dtype": {"type": "DT_INT32"}}}, {"name": "StatefulPartitionedCall/transformer/padding_mask/strided_slice/stack_1", "op": "Const", "attr": {"value": {"tensor": {"dtype": "DT_INT32", "tensorShape": {"dim": [{"size": "4"}]}}}, "dtype": {"type": "DT_INT32"}}}, {"name": "StatefulPartitionedCall/transformer/padding_mask/strided_slice/stack_2", "op": "Const", "attr": {"value": {"tensor": {"dtype": "DT_INT32", "tensorShape": {"dim": [{"size": "4"}]}}}, "dtype": {"type": "DT_INT32"}}}, {"name": "StatefulPartitionedCall/transformer/encoder/encoder_layer_0/multihead_self_attention/mul/y", "op": "Const", "attr": {"value": {"tensor": {"dtype": "DT_FLOAT", "tensorShape": {}}}, "dtype": {"type": "DT_FLOAT"}}}, {"name": "StatefulPartitionedCall/transformer/encoder/encoder_layer_0/multihead_self_attention/dense/Tensordot_2/Const", "op": "Const", "attr": {"value": {"tensor": {"dtype": "DT_INT32", "tensorShape": {"dim": [{"size": "1"}]}}}, "dtype": {"type": "DT_INT32"}}}, {"name": "StatefulPartitionedCall/transformer/encoder/encoder_layer_0/multihead_self_attention/dense/Tensordot_2/axes", "op": "Const", "attr": {"value": {"tensor": {"dtype": "DT_INT32", "tensorShape": {"dim": [{"size": "1"}]}}}, "dtype": {"type": "DT_INT32"}}}, {"name": "StatefulPartitionedCall/transformer/encoder/encoder_layer_0/multihead_self_attention/dense/Tensordot_2/GatherV2_1/axis", "op": "Const", "attr": {"value": {"tensor": {"dtype": "DT_INT32", "tensorShape": {}}}, "dtype": {"type": "DT_INT32"}}}, {"name": "StatefulPartitionedCall/transformer/encoder/encoder_layer_0/multihead_self_attention/dense/Tensordot_2/Const_1", "op": "Const", "attr": {"value": {"tensor": {"dtype": "DT_INT32", "tensorShape": {"dim": [{"size": "1"}]}}}, "dtype": {"type": "DT_INT32"}}}, {"name": "StatefulPartitionedCall/transformer/encoder/encoder_layer_0/multihead_self_attention/dense/Tensordot_2/ReadVariableOp", "op": "Const", "attr": {"value": {"tensor": {"dtype": "DT_FLOAT", "tensorShape": {"dim": [{"size": "8"}, {"size": "8"}]}}}, "dtype": {"type": "DT_FLOAT"}}}, {"name": "StatefulPartitionedCall/transformer/encoder/encoder_layer_0/multihead_self_attention/dense/Tensordot_2/free", "op": "Const", "attr": {"value": {"tensor": {"dtype": "DT_INT32", "tensorShape": {"dim": [{"size": "2"}]}}}, "dtype": {"type": "DT_INT32"}}}, {"name": "StatefulPartitionedCall/transformer/encoder/encoder_layer_0/multihead_self_attention/dense/Tensordot_2/GatherV2/axis", "op": "Const", "attr": {"value": {"tensor": {"dtype": "DT_INT32", "tensorShape": {}}}, "dtype": {"type": "DT_INT32"}}}, {"name": "StatefulPartitionedCall/transformer/encoder/encoder_layer_0/multihead_self_attention/dense/Tensordot_2/Const_2", "op": "Const", "attr": {"value": {"tensor": {"dtype": "DT_INT32", "tensorShape": {"dim": [{"size": "1"}]}}}, "dtype": {"type": "DT_INT32"}}}, {"name": "StatefulPartitionedCall/transformer/encoder/encoder_layer_0/multihead_self_attention/dense/Tensordot_2/concat_1/axis", "op": "Const", "attr": {"value": {"tensor": {"dtype": "DT_INT32", "tensorShape": {}}}, "dtype": {"type": "DT_INT32"}}}, {"name": "StatefulPartitionedCall/transformer/encoder/encoder_layer_0/multihead_self_attention/dense/BiasAdd_2/ReadVariableOp", "op": "Const", "attr": {"value": {"tensor": {"dtype": "DT_FLOAT", "tensorShape": {"dim": [{"size": "8"}]}}}, "dtype": {"type": "DT_FLOAT"}}}, {"name": "StatefulPartitionedCall/transformer/encoder/encoder_layer_0/multihead_self_attention/Reshape_2/shape/1", "op": "Const", "attr": {"value": {"tensor": {"dtype": "DT_INT32", "tensorShape": {}}}, "dtype": {"type": "DT_INT32"}}}, {"name": "StatefulPartitionedCall/transformer/encoder/encoder_layer_0/multihead_self_attention/Reshape_2/shape/2", "op": "Const", "attr": {"value": {"tensor": {"dtype": "DT_INT32", "tensorShape": {}}}, "dtype": {"type": "DT_INT32"}}}, {"name": "StatefulPartitionedCall/transformer/encoder/encoder_layer_0/multihead_self_attention/Reshape_2/shape/3", "op": "Const", "attr": {"value": {"tensor": {"dtype": "DT_INT32", "tensorShape": {}}}, "dtype": {"type": "DT_INT32"}}}, {"name": "StatefulPartitionedCall/transformer/encoder/encoder_layer_0/multihead_self_attention/transpose_2/perm", "op": "Const", "attr": {"value": {"tensor": {"dtype": "DT_INT32", "tensorShape": {"dim": [{"size": "4"}]}}}, "dtype": {"type": "DT_INT32"}}}, {"name": "StatefulPartitionedCall/transformer/encoder/encoder_layer_0/multihead_self_attention/transpose_3/perm", "op": "Const", "attr": {"value": {"tensor": {"dtype": "DT_INT32", "tensorShape": {"dim": [{"size": "4"}]}}}, "dtype": {"type": "DT_INT32"}}}, {"name": "unknown_1", "op": "Const", "attr": {"dtype": {"type": "DT_FLOAT"}, "value": {"tensor": {"dtype": "DT_FLOAT", "tensorShape": {"dim": [{"size": "1"}, {"size": "30522"}, {"size": "8"}]}}}}}, {"name": "StatefulPartitionedCall/transformer/encoder/positional_encoding/strided_slice_1/stack", "op": "Const", "attr": {"value": {"tensor": {"dtype": "DT_INT32", "tensorShape": {"dim": [{"size": "3"}]}}}, "dtype": {"type": "DT_INT32"}}}, {"name": "StatefulPartitionedCall/transformer/encoder/positional_encoding/strided_slice_1/stack_1/0", "op": "Const", "attr": {"value": {"tensor": {"dtype": "DT_INT32", "tensorShape": {}}}, "dtype": {"type": "DT_INT32"}}}, {"name": "unknown", "op": "Const", "attr": {"dtype": {"type": "DT_FLOAT"}, "value": {"tensor": {"dtype": "DT_FLOAT", "tensorShape": {"dim": [{"size": "30522"}, {"size": "8"}]}}}}}, {"name": "StatefulPartitionedCall/transformer/encoder/embedding/embedding_lookup/axis", "op": "Const", "attr": {"value": {"tensor": {"dtype": "DT_INT32", "tensorShape": {}}}, "dtype": {"type": "DT_INT32"}}}, {"name": "unknown_0", "op": "Const", "attr": {"value": {"tensor": {"dtype": "DT_FLOAT", "tensorShape": {}}}, "dtype": {"type": "DT_FLOAT"}}}, {"name": "StatefulPartitionedCall/transformer/encoder/positional_encoding/strided_slice/stack", "op": "Const", "attr": {"value": {"tensor": {"dtype": "DT_INT32", "tensorShape": {"dim": [{"size": "1"}]}}}, "dtype": {"type": "DT_INT32"}}}, {"name": "StatefulPartitionedCall/transformer/encoder/positional_encoding/strided_slice/stack_1", "op": "Const", "attr": {"dtype": {"type": "DT_INT32"}, "value": {"tensor": {"dtype": "DT_INT32", "tensorShape": {"dim": [{"size": "1"}]}}}}}, {"name": "StatefulPartitionedCall/transformer/encoder/positional_encoding/strided_slice/stack_2", "op": "Const", "attr": {"value": {"tensor": {"dtype": "DT_INT32", "tensorShape": {"dim": [{"size": "1"}]}}}, "dtype": {"type": "DT_INT32"}}}, {"name": "StatefulPartitionedCall/transformer/encoder/positional_encoding/strided_slice_1/stack_1/2", "op": "Const", "attr": {"value": {"tensor": {"dtype": "DT_INT32", "tensorShape": {}}}, "dtype": {"type": "DT_INT32"}}}, {"name": "StatefulPartitionedCall/transformer/encoder/positional_encoding/strided_slice_1/stack_2", "op": "Const", "attr": {"value": {"tensor": {"dtype": "DT_INT32", "tensorShape": {"dim": [{"size": "3"}]}}}, "dtype": {"type": "DT_INT32"}}}, {"name": "StatefulPartitionedCall/transformer/encoder/encoder_layer_0/multihead_self_attention/strided_slice/stack", "op": "Const", "attr": {"value": {"tensor": {"dtype": "DT_INT32", "tensorShape": {"dim": [{"size": "1"}]}}}, "dtype": {"type": "DT_INT32"}}}, {"name": "StatefulPartitionedCall/transformer/encoder/encoder_layer_0/multihead_self_attention/strided_slice/stack_1", "op": "Const", "attr": {"dtype": {"type": "DT_INT32"}, "value": {"tensor": {"dtype": "DT_INT32", "tensorShape": {"dim": [{"size": "1"}]}}}}}, {"name": "StatefulPartitionedCall/transformer/encoder/encoder_layer_0/multihead_self_attention/strided_slice/stack_2", "op": "Const", "attr": {"value": {"tensor": {"dtype": "DT_INT32", "tensorShape": {"dim": [{"size": "1"}]}}}, "dtype": {"type": "DT_INT32"}}}, {"name": "StatefulPartitionedCall/transformer/encoder/encoder_layer_0/multihead_self_attention/Reshape_3/shape/1", "op": "Const", "attr": {"value": {"tensor": {"dtype": "DT_INT32", "tensorShape": {}}}, "dtype": {"type": "DT_INT32"}}}, {"name": "StatefulPartitionedCall/transformer/encoder/encoder_layer_0/multihead_self_attention/Reshape_3/shape/2", "op": "Const", "attr": {"value": {"tensor": {"dtype": "DT_INT32", "tensorShape": {}}}, "dtype": {"type": "DT_INT32"}}}, {"name": "StatefulPartitionedCall/transformer/encoder/encoder_layer_0/multihead_self_attention/dense_3/Tensordot/free", "op": "Const", "attr": {"value": {"tensor": {"dtype": "DT_INT32", "tensorShape": {"dim": [{"size": "2"}]}}}, "dtype": {"type": "DT_INT32"}}}, {"name": "StatefulPartitionedCall/transformer/encoder/encoder_layer_0/multihead_self_attention/dense_3/Tensordot/GatherV2/axis", "op": "Const", "attr": {"dtype": {"type": "DT_INT32"}, "value": {"tensor": {"dtype": "DT_INT32", "tensorShape": {}}}}}, {"name": "StatefulPartitionedCall/transformer/encoder/encoder_layer_0/multihead_self_attention/dense_3/Tensordot/Const_2", "op": "Const", "attr": {"value": {"tensor": {"dtype": "DT_INT32", "tensorShape": {"dim": [{"size": "1"}]}}}, "dtype": {"type": "DT_INT32"}}}, {"name": "StatefulPartitionedCall/transformer/encoder/encoder_layer_0/multihead_self_attention/dense_3/Tensordot/concat_1/axis", "op": "Const", "attr": {"value": {"tensor": {"dtype": "DT_INT32", "tensorShape": {}}}, "dtype": {"type": "DT_INT32"}}}, {"name": "StatefulPartitionedCall/transformer/encoder/encoder_layer_0/multihead_self_attention/dense_3/BiasAdd/ReadVariableOp", "op": "Const", "attr": {"value": {"tensor": {"dtype": "DT_FLOAT", "tensorShape": {"dim": [{"size": "8"}]}}}, "dtype": {"type": "DT_FLOAT"}}}, {"name": "StatefulPartitionedCall/transformer/encoder/encoder_layer_0/layer_normalization/moments/mean/reduction_indices", "op": "Const", "attr": {"value": {"tensor": {"dtype": "DT_INT32", "tensorShape": {"dim": [{"size": "1"}]}}}, "dtype": {"type": "DT_INT32"}}}, {"name": "StatefulPartitionedCall/transformer/encoder/encoder_layer_0/layer_normalization/moments/variance/reduction_indices", "op": "Const", "attr": {"value": {"tensor": {"dtype": "DT_INT32", "tensorShape": {"dim": [{"size": "1"}]}}}, "dtype": {"type": "DT_INT32"}}}, {"name": "StatefulPartitionedCall/transformer/encoder/encoder_layer_0/layer_normalization/batchnorm/add/y", "op": "Const", "attr": {"value": {"tensor": {"dtype": "DT_FLOAT", "tensorShape": {}}}, "dtype": {"type": "DT_FLOAT"}}}, {"name": "StatefulPartitionedCall/transformer/encoder/encoder_layer_0/layer_normalization/batchnorm/mul/ReadVariableOp", "op": "Const", "attr": {"value": {"tensor": {"dtype": "DT_FLOAT", "tensorShape": {"dim": [{"size": "8"}]}}}, "dtype": {"type": "DT_FLOAT"}}}, {"name": "StatefulPartitionedCall/transformer/encoder/encoder_layer_0/dense_4/Tensordot/free", "op": "Const", "attr": {"value": {"tensor": {"dtype": "DT_INT32", "tensorShape": {"dim": [{"size": "2"}]}}}, "dtype": {"type": "DT_INT32"}}}, {"name": "StatefulPartitionedCall/transformer/encoder/encoder_layer_0/dense_4/Tensordot/GatherV2/axis", "op": "Const", "attr": {"value": {"tensor": {"dtype": "DT_INT32", "tensorShape": {}}}, "dtype": {"type": "DT_INT32"}}}, {"name": "StatefulPartitionedCall/transformer/encoder/encoder_layer_0/dense_4/Tensordot/Const_2", "op": "Const", "attr": {"value": {"tensor": {"dtype": "DT_INT32", "tensorShape": {"dim": [{"size": "1"}]}}}, "dtype": {"type": "DT_INT32"}}}, {"name": "StatefulPartitionedCall/transformer/encoder/encoder_layer_0/dense_4/Tensordot/concat_1/axis", "op": "Const", "attr": {"value": {"tensor": {"dtype": "DT_INT32", "tensorShape": {}}}, "dtype": {"type": "DT_INT32"}}}, {"name": "StatefulPartitionedCall/transformer/encoder/encoder_layer_0/dense_4/BiasAdd/ReadVariableOp", "op": "Const", "attr": {"value": {"tensor": {"dtype": "DT_FLOAT", "tensorShape": {"dim": [{"size": "8"}]}}}, "dtype": {"type": "DT_FLOAT"}}}, {"name": "StatefulPartitionedCall/transformer/encoder/encoder_layer_0/dense_5/Tensordot/free", "op": "Const", "attr": {"value": {"tensor": {"dtype": "DT_INT32", "tensorShape": {"dim": [{"size": "2"}]}}}, "dtype": {"type": "DT_INT32"}}}, {"name": "StatefulPartitionedCall/transformer/encoder/encoder_layer_0/dense_5/Tensordot/GatherV2/axis", "op": "Const", "attr": {"value": {"tensor": {"dtype": "DT_INT32", "tensorShape": {}}}, "dtype": {"type": "DT_INT32"}}}, {"name": "StatefulPartitionedCall/transformer/encoder/encoder_layer_0/dense_5/Tensordot/Const_2", "op": "Const", "attr": {"value": {"tensor": {"dtype": "DT_INT32", "tensorShape": {"dim": [{"size": "1"}]}}}, "dtype": {"type": "DT_INT32"}}}, {"name": "StatefulPartitionedCall/transformer/encoder/encoder_layer_0/dense_5/Tensordot/concat_1/axis", "op": "Const", "attr": {"dtype": {"type": "DT_INT32"}, "value": {"tensor": {"dtype": "DT_INT32", "tensorShape": {}}}}}, {"name": "StatefulPartitionedCall/transformer/encoder/encoder_layer_0/dense_5/BiasAdd/ReadVariableOp", "op": "Const", "attr": {"value": {"tensor": {"dtype": "DT_FLOAT", "tensorShape": {"dim": [{"size": "8"}]}}}, "dtype": {"type": "DT_FLOAT"}}}, {"name": "StatefulPartitionedCall/transformer/encoder/encoder_layer_0/layer_normalization_1/moments/mean/reduction_indices", "op": "Const", "attr": {"value": {"tensor": {"dtype": "DT_INT32", "tensorShape": {"dim": [{"size": "1"}]}}}, "dtype": {"type": "DT_INT32"}}}, {"name": "StatefulPartitionedCall/transformer/encoder/encoder_layer_0/layer_normalization_1/moments/variance/reduction_indices", "op": "Const", "attr": {"value": {"tensor": {"dtype": "DT_INT32", "tensorShape": {"dim": [{"size": "1"}]}}}, "dtype": {"type": "DT_INT32"}}}, {"name": "StatefulPartitionedCall/transformer/encoder/encoder_layer_0/layer_normalization_1/batchnorm/add/y", "op": "Const", "attr": {"value": {"tensor": {"dtype": "DT_FLOAT", "tensorShape": {}}}, "dtype": {"type": "DT_FLOAT"}}}, {"name": "StatefulPartitionedCall/transformer/encoder/encoder_layer_0/layer_normalization_1/batchnorm/mul/ReadVariableOp", "op": "Const", "attr": {"dtype": {"type": "DT_FLOAT"}, "value": {"tensor": {"dtype": "DT_FLOAT", "tensorShape": {"dim": [{"size": "8"}]}}}}}, {"name": "StatefulPartitionedCall/transformer/dense_6/Tensordot/free", "op": "Const", "attr": {"dtype": {"type": "DT_INT32"}, "value": {"tensor": {"dtype": "DT_INT32", "tensorShape": {"dim": [{"size": "2"}]}}}}}, {"name": "StatefulPartitionedCall/transformer/dense_6/Tensordot/GatherV2/axis", "op": "Const", "attr": {"value": {"tensor": {"dtype": "DT_INT32", "tensorShape": {}}}, "dtype": {"type": "DT_INT32"}}}, {"name": "StatefulPartitionedCall/transformer/dense_6/Tensordot/Const_2", "op": "Const", "attr": {"value": {"tensor": {"dtype": "DT_INT32", "tensorShape": {"dim": [{"size": "1"}]}}}, "dtype": {"type": "DT_INT32"}}}, {"name": "StatefulPartitionedCall/transformer/dense_6/Tensordot/concat_1/axis", "op": "Const", "attr": {"value": {"tensor": {"dtype": "DT_INT32", "tensorShape": {}}}, "dtype": {"type": "DT_INT32"}}}, {"name": "StatefulPartitionedCall/transformer/dense_6/BiasAdd/ReadVariableOp", "op": "Const", "attr": {"value": {"tensor": {"dtype": "DT_FLOAT", "tensorShape": {"dim": [{"size": "8"}]}}}, "dtype": {"type": "DT_FLOAT"}}}, {"name": "StatefulPartitionedCall/transformer/global_average_pooling1d/Mean/reduction_indices", "op": "Const", "attr": {"value": {"tensor": {"dtype": "DT_INT32", "tensorShape": {}}}, "dtype": {"type": "DT_INT32"}}}, {"name": "StatefulPartitionedCall/transformer/outputs/MatMul/ReadVariableOp", "op": "Const", "attr": {"value": {"tensor": {"dtype": "DT_FLOAT", "tensorShape": {"dim": [{"size": "8"}, {"size": "7"}]}}}, "dtype": {"type": "DT_FLOAT"}}}, {"name": "StatefulPartitionedCall/transformer/outputs/BiasAdd/ReadVariableOp", "op": "Const", "attr": {"dtype": {"type": "DT_FLOAT"}, "value": {"tensor": {"dtype": "DT_FLOAT", "tensorShape": {"dim": [{"size": "7"}]}}}}}, {"name": "inputs", "op": "Placeholder", "attr": {"shape": {"shape": {"dim": [{"size": "-1"}, {"size": "-1"}]}}, "dtype": {"type": "DT_FLOAT"}}}, {"name": "StatefulPartitionedCall/transformer/padding_mask/Equal", "op": "Equal", "input": ["inputs", "StatefulPartitionedCall/transformer/padding_mask/Equal/y"], "attr": {"incompatible_shape_error": {"b": true}, "T": {"type": "DT_FLOAT"}}}, {"name": "StatefulPartitionedCall/transformer/encoder/embedding/Cast", "op": "Cast", "input": ["inputs"], "attr": {"DstT": {"type": "DT_INT32"}, "SrcT": {"type": "DT_FLOAT"}, "Truncate": {"b": false}}}, {"name": "StatefulPartitionedCall/transformer/padding_mask/Cast", "op": "Cast", "input": ["StatefulPartitionedCall/transformer/padding_mask/Equal"], "attr": {"Truncate": {"b": false}, "DstT": {"type": "DT_FLOAT"}, "SrcT": {"type": "DT_BOOL"}}}, {"name": "StatefulPartitionedCall/transformer/encoder/embedding/embedding_lookup", "op": "GatherV2", "input": ["unknown", "StatefulPartitionedCall/transformer/encoder/embedding/Cast", "StatefulPartitionedCall/transformer/encoder/embedding/embedding_lookup/axis"], "attr": {"Taxis": {"type": "DT_INT32"}, "batch_dims": {"i": "0"}, "Tindices": {"type": "DT_INT32"}, "Tparams": {"type": "DT_FLOAT"}}}, {"name": "StatefulPartitionedCall/transformer/padding_mask/strided_slice", "op": "StridedSlice", "input": ["StatefulPartitionedCall/transformer/padding_mask/Cast", "StatefulPartitionedCall/transformer/padding_mask/strided_slice/stack", "StatefulPartitionedCall/transformer/padding_mask/strided_slice/stack_1", "StatefulPartitionedCall/transformer/padding_mask/strided_slice/stack_2"], "attr": {"new_axis_mask": {"i": "6"}, "end_mask": {"i": "9"}, "T": {"type": "DT_FLOAT"}, "Index": {"type": "DT_INT32"}, "shrink_axis_mask": {"i": "0"}, "begin_mask": {"i": "9"}, "ellipsis_mask": {"i": "0"}}}, {"name": "StatefulPartitionedCall/transformer/encoder/tf.math.multiply/Mul", "op": "Mul", "input": ["StatefulPartitionedCall/transformer/encoder/embedding/embedding_lookup", "unknown_0"], "attr": {"T": {"type": "DT_FLOAT"}}}, {"name": "StatefulPartitionedCall/transformer/encoder/encoder_layer_0/multihead_self_attention/mul", "op": "Mul", "input": ["StatefulPartitionedCall/transformer/padding_mask/strided_slice", "StatefulPartitionedCall/transformer/encoder/encoder_layer_0/multihead_self_attention/mul/y"], "attr": {"T": {"type": "DT_FLOAT"}}}, {"name": "StatefulPartitionedCall/transformer/encoder/positional_encoding/Shape", "op": "Shape", "input": ["StatefulPartitionedCall/transformer/encoder/tf.math.multiply/Mul"], "attr": {"T": {"type": "DT_FLOAT"}, "out_type": {"type": "DT_INT32"}}}, {"name": "StatefulPartitionedCall/transformer/encoder/positional_encoding/strided_slice", "op": "StridedSlice", "input": ["StatefulPartitionedCall/transformer/encoder/positional_encoding/Shape", "StatefulPartitionedCall/transformer/encoder/positional_encoding/strided_slice/stack", "StatefulPartitionedCall/transformer/encoder/positional_encoding/strided_slice/stack_1", "StatefulPartitionedCall/transformer/encoder/positional_encoding/strided_slice/stack_2"], "attr": {"new_axis_mask": {"i": "0"}, "end_mask": {"i": "0"}, "T": {"type": "DT_INT32"}, "Index": {"type": "DT_INT32"}, "shrink_axis_mask": {"i": "1"}, "begin_mask": {"i": "0"}, "ellipsis_mask": {"i": "0"}}}, {"name": "StatefulPartitionedCall/transformer/encoder/positional_encoding/strided_slice_1/stack_1", "op": "Pack", "input": ["StatefulPartitionedCall/transformer/encoder/positional_encoding/strided_slice_1/stack_1/0", "StatefulPartitionedCall/transformer/encoder/positional_encoding/strided_slice", "StatefulPartitionedCall/transformer/encoder/positional_encoding/strided_slice_1/stack_1/2"], "attr": {"T": {"type": "DT_INT32"}, "axis": {"i": "0"}, "N": {"i": "3"}}}, {"name": "StatefulPartitionedCall/transformer/encoder/positional_encoding/strided_slice_1", "op": "StridedSlice", "input": ["unknown_1", "StatefulPartitionedCall/transformer/encoder/positional_encoding/strided_slice_1/stack", "StatefulPartitionedCall/transformer/encoder/positional_encoding/strided_slice_1/stack_1", "StatefulPartitionedCall/transformer/encoder/positional_encoding/strided_slice_1/stack_2"], "attr": {"Index": {"type": "DT_INT32"}, "T": {"type": "DT_FLOAT"}, "shrink_axis_mask": {"i": "0"}, "ellipsis_mask": {"i": "0"}, "begin_mask": {"i": "7"}, "new_axis_mask": {"i": "0"}, "end_mask": {"i": "5"}}}, {"name": "StatefulPartitionedCall/transformer/encoder/positional_encoding/add", "op": "AddV2", "input": ["StatefulPartitionedCall/transformer/encoder/tf.math.multiply/Mul", "StatefulPartitionedCall/transformer/encoder/positional_encoding/strided_slice_1"], "attr": {"T": {"type": "DT_FLOAT"}}}, {"name": "StatefulPartitionedCall/transformer/encoder/encoder_layer_0/multihead_self_attention/dense/Tensordot/Shape", "op": "Shape", "input": ["StatefulPartitionedCall/transformer/encoder/positional_encoding/add"], "attr": {"T": {"type": "DT_FLOAT"}, "out_type": {"type": "DT_INT32"}}}, {"name": "StatefulPartitionedCall/transformer/encoder/encoder_layer_0/multihead_self_attention/dense/Tensordot_1/Shape", "op": "Shape", "input": ["StatefulPartitionedCall/transformer/encoder/positional_encoding/add"], "attr": {"T": {"type": "DT_FLOAT"}, "out_type": {"type": "DT_INT32"}}}, {"name": "StatefulPartitionedCall/transformer/encoder/encoder_layer_0/multihead_self_attention/dense/Tensordot_2/Shape", "op": "Shape", "input": ["StatefulPartitionedCall/transformer/encoder/positional_encoding/add"], "attr": {"T": {"type": "DT_FLOAT"}, "out_type": {"type": "DT_INT32"}}}, {"name": "StatefulPartitionedCall/transformer/encoder/encoder_layer_0/multihead_self_attention/Shape", "op": "Shape", "input": ["StatefulPartitionedCall/transformer/encoder/positional_encoding/add"], "attr": {"T": {"type": "DT_FLOAT"}, "out_type": {"type": "DT_INT32"}}}, {"name": "StatefulPartitionedCall/transformer/encoder/encoder_layer_0/multihead_self_attention/dense/Tensordot/GatherV2_1", "op": "GatherV2", "input": ["StatefulPartitionedCall/transformer/encoder/encoder_layer_0/multihead_self_attention/dense/Tensordot/Shape", "StatefulPartitionedCall/transformer/encoder/encoder_layer_0/multihead_self_attention/dense/Tensordot/axes", "StatefulPartitionedCall/transformer/encoder/encoder_layer_0/multihead_self_attention/dense/Tensordot/GatherV2_1/axis"], "attr": {"Taxis": {"type": "DT_INT32"}, "batch_dims": {"i": "0"}, "Tindices": {"type": "DT_INT32"}, "Tparams": {"type": "DT_INT32"}}}, {"name": "StatefulPartitionedCall/transformer/encoder/encoder_layer_0/multihead_self_attention/dense/Tensordot/GatherV2", "op": "GatherV2", "input": ["StatefulPartitionedCall/transformer/encoder/encoder_layer_0/multihead_self_attention/dense/Tensordot/Shape", "StatefulPartitionedCall/transformer/encoder/encoder_layer_0/multihead_self_attention/dense/Tensordot/free", "StatefulPartitionedCall/transformer/encoder/encoder_layer_0/multihead_self_attention/dense/Tensordot/GatherV2/axis"], "attr": {"batch_dims": {"i": "0"}, "Tindices": {"type": "DT_INT32"}, "Tparams": {"type": "DT_INT32"}, "Taxis": {"type": "DT_INT32"}}}, {"name": "StatefulPartitionedCall/transformer/encoder/encoder_layer_0/multihead_self_attention/dense/Tensordot_1/GatherV2_1", "op": "GatherV2", "input": ["StatefulPartitionedCall/transformer/encoder/encoder_layer_0/multihead_self_attention/dense/Tensordot_1/Shape", "StatefulPartitionedCall/transformer/encoder/encoder_layer_0/multihead_self_attention/dense/Tensordot_1/axes", "StatefulPartitionedCall/transformer/encoder/encoder_layer_0/multihead_self_attention/dense/Tensordot_1/GatherV2_1/axis"], "attr": {"Tindices": {"type": "DT_INT32"}, "Tparams": {"type": "DT_INT32"}, "Taxis": {"type": "DT_INT32"}, "batch_dims": {"i": "0"}}}, {"name": "StatefulPartitionedCall/transformer/encoder/encoder_layer_0/multihead_self_attention/dense/Tensordot_1/GatherV2", "op": "GatherV2", "input": ["StatefulPartitionedCall/transformer/encoder/encoder_layer_0/multihead_self_attention/dense/Tensordot_1/Shape", "StatefulPartitionedCall/transformer/encoder/encoder_layer_0/multihead_self_attention/dense/Tensordot_1/free", "StatefulPartitionedCall/transformer/encoder/encoder_layer_0/multihead_self_attention/dense/Tensordot_1/GatherV2/axis"], "attr": {"Taxis": {"type": "DT_INT32"}, "batch_dims": {"i": "0"}, "Tindices": {"type": "DT_INT32"}, "Tparams": {"type": "DT_INT32"}}}, {"name": "StatefulPartitionedCall/transformer/encoder/encoder_layer_0/multihead_self_attention/dense/Tensordot_2/GatherV2_1", "op": "GatherV2", "input": ["StatefulPartitionedCall/transformer/encoder/encoder_layer_0/multihead_self_attention/dense/Tensordot_2/Shape", "StatefulPartitionedCall/transformer/encoder/encoder_layer_0/multihead_self_attention/dense/Tensordot_2/axes", "StatefulPartitionedCall/transformer/encoder/encoder_layer_0/multihead_self_attention/dense/Tensordot_2/GatherV2_1/axis"], "attr": {"Taxis": {"type": "DT_INT32"}, "batch_dims": {"i": "0"}, "Tindices": {"type": "DT_INT32"}, "Tparams": {"type": "DT_INT32"}}}, {"name": "StatefulPartitionedCall/transformer/encoder/encoder_layer_0/multihead_self_attention/dense/Tensordot_2/GatherV2", "op": "GatherV2", "input": ["StatefulPartitionedCall/transformer/encoder/encoder_layer_0/multihead_self_attention/dense/Tensordot_2/Shape", "StatefulPartitionedCall/transformer/encoder/encoder_layer_0/multihead_self_attention/dense/Tensordot_2/free", "StatefulPartitionedCall/transformer/encoder/encoder_layer_0/multihead_self_attention/dense/Tensordot_2/GatherV2/axis"], "attr": {"Taxis": {"type": "DT_INT32"}, "batch_dims": {"i": "0"}, "Tindices": {"type": "DT_INT32"}, "Tparams": {"type": "DT_INT32"}}}, {"name": "StatefulPartitionedCall/transformer/encoder/encoder_layer_0/multihead_self_attention/strided_slice", "op": "StridedSlice", "input": ["StatefulPartitionedCall/transformer/encoder/encoder_layer_0/multihead_self_attention/Shape", "StatefulPartitionedCall/transformer/encoder/encoder_layer_0/multihead_self_attention/strided_slice/stack", "StatefulPartitionedCall/transformer/encoder/encoder_layer_0/multihead_self_attention/strided_slice/stack_1", "StatefulPartitionedCall/transformer/encoder/encoder_layer_0/multihead_self_attention/strided_slice/stack_2"], "attr": {"new_axis_mask": {"i": "0"}, "end_mask": {"i": "0"}, "T": {"type": "DT_INT32"}, "Index": {"type": "DT_INT32"}, "shrink_axis_mask": {"i": "1"}, "ellipsis_mask": {"i": "0"}, "begin_mask": {"i": "0"}}}, {"name": "StatefulPartitionedCall/transformer/encoder/encoder_layer_0/multihead_self_attention/dense/Tensordot/Prod_1", "op": "Prod", "input": ["StatefulPartitionedCall/transformer/encoder/encoder_layer_0/multihead_self_attention/dense/Tensordot/GatherV2_1", "StatefulPartitionedCall/transformer/encoder/encoder_layer_0/multihead_self_attention/dense/Tensordot/Const_1"], "attr": {"Tidx": {"type": "DT_INT32"}, "keep_dims": {"b": false}, "T": {"type": "DT_INT32"}}}, {"name": "StatefulPartitionedCall/transformer/encoder/encoder_layer_0/multihead_self_attention/dense/Tensordot/Prod", "op": "Prod", "input": ["StatefulPartitionedCall/transformer/encoder/encoder_layer_0/multihead_self_attention/dense/Tensordot/GatherV2", "StatefulPartitionedCall/transformer/encoder/encoder_layer_0/multihead_self_attention/dense/Tensordot/Const"], "attr": {"Tidx": {"type": "DT_INT32"}, "keep_dims": {"b": false}, "T": {"type": "DT_INT32"}}}, {"name": "StatefulPartitionedCall/transformer/encoder/encoder_layer_0/multihead_self_attention/dense/Tensordot/concat_1", "op": "ConcatV2", "input": ["StatefulPartitionedCall/transformer/encoder/encoder_layer_0/multihead_self_attention/dense/Tensordot/GatherV2", "StatefulPartitionedCall/transformer/encoder/encoder_layer_0/multihead_self_attention/dense/Tensordot/Const_2", "StatefulPartitionedCall/transformer/encoder/encoder_layer_0/multihead_self_attention/dense/Tensordot/concat_1/axis"], "attr": {"T": {"type": "DT_INT32"}, "N": {"i": "2"}, "Tidx": {"type": "DT_INT32"}}}, {"name": "StatefulPartitionedCall/transformer/encoder/encoder_layer_0/multihead_self_attention/dense/Tensordot_1/Prod_1", "op": "Prod", "input": ["StatefulPartitionedCall/transformer/encoder/encoder_layer_0/multihead_self_attention/dense/Tensordot_1/GatherV2_1", "StatefulPartitionedCall/transformer/encoder/encoder_layer_0/multihead_self_attention/dense/Tensordot_1/Const_1"], "attr": {"Tidx": {"type": "DT_INT32"}, "keep_dims": {"b": false}, "T": {"type": "DT_INT32"}}}, {"name": "StatefulPartitionedCall/transformer/encoder/encoder_layer_0/multihead_self_attention/dense/Tensordot_1/Prod", "op": "Prod", "input": ["StatefulPartitionedCall/transformer/encoder/encoder_layer_0/multihead_self_attention/dense/Tensordot_1/GatherV2", "StatefulPartitionedCall/transformer/encoder/encoder_layer_0/multihead_self_attention/dense/Tensordot_1/Const"], "attr": {"Tidx": {"type": "DT_INT32"}, "keep_dims": {"b": false}, "T": {"type": "DT_INT32"}}}, {"name": "StatefulPartitionedCall/transformer/encoder/encoder_layer_0/multihead_self_attention/dense/Tensordot_1/concat_1", "op": "ConcatV2", "input": ["StatefulPartitionedCall/transformer/encoder/encoder_layer_0/multihead_self_attention/dense/Tensordot_1/GatherV2", "StatefulPartitionedCall/transformer/encoder/encoder_layer_0/multihead_self_attention/dense/Tensordot_1/Const_2", "StatefulPartitionedCall/transformer/encoder/encoder_layer_0/multihead_self_attention/dense/Tensordot_1/concat_1/axis"], "attr": {"T": {"type": "DT_INT32"}, "N": {"i": "2"}, "Tidx": {"type": "DT_INT32"}}}, {"name": "StatefulPartitionedCall/transformer/encoder/encoder_layer_0/multihead_self_attention/dense/Tensordot_2/Prod_1", "op": "Prod", "input": ["StatefulPartitionedCall/transformer/encoder/encoder_layer_0/multihead_self_attention/dense/Tensordot_2/GatherV2_1", "StatefulPartitionedCall/transformer/encoder/encoder_layer_0/multihead_self_attention/dense/Tensordot_2/Const_1"], "attr": {"T": {"type": "DT_INT32"}, "Tidx": {"type": "DT_INT32"}, "keep_dims": {"b": false}}}, {"name": "StatefulPartitionedCall/transformer/encoder/encoder_layer_0/multihead_self_attention/dense/Tensordot_2/Prod", "op": "Prod", "input": ["StatefulPartitionedCall/transformer/encoder/encoder_layer_0/multihead_self_attention/dense/Tensordot_2/GatherV2", "StatefulPartitionedCall/transformer/encoder/encoder_layer_0/multihead_self_attention/dense/Tensordot_2/Const"], "attr": {"Tidx": {"type": "DT_INT32"}, "keep_dims": {"b": false}, "T": {"type": "DT_INT32"}}}, {"name": "StatefulPartitionedCall/transformer/encoder/encoder_layer_0/multihead_self_attention/dense/Tensordot_2/concat_1", "op": "ConcatV2", "input": ["StatefulPartitionedCall/transformer/encoder/encoder_layer_0/multihead_self_attention/dense/Tensordot_2/GatherV2", "StatefulPartitionedCall/transformer/encoder/encoder_layer_0/multihead_self_attention/dense/Tensordot_2/Const_2", "StatefulPartitionedCall/transformer/encoder/encoder_layer_0/multihead_self_attention/dense/Tensordot_2/concat_1/axis"], "attr": {"Tidx": {"type": "DT_INT32"}, "T": {"type": "DT_INT32"}, "N": {"i": "2"}}}, {"name": "StatefulPartitionedCall/transformer/encoder/encoder_layer_0/multihead_self_attention/Reshape/shape", "op": "Pack", "input": ["StatefulPartitionedCall/transformer/encoder/encoder_layer_0/multihead_self_attention/strided_slice", "StatefulPartitionedCall/transformer/encoder/encoder_layer_0/multihead_self_attention/Reshape/shape/1", "StatefulPartitionedCall/transformer/encoder/encoder_layer_0/multihead_self_attention/Reshape/shape/2", "StatefulPartitionedCall/transformer/encoder/encoder_layer_0/multihead_self_attention/Reshape/shape/3"], "attr": {"T": {"type": "DT_INT32"}, "axis": {"i": "0"}, "N": {"i": "4"}}}, {"name": "StatefulPartitionedCall/transformer/encoder/encoder_layer_0/multihead_self_attention/Reshape_1/shape", "op": "Pack", "input": ["StatefulPartitionedCall/transformer/encoder/encoder_layer_0/multihead_self_attention/strided_slice", "StatefulPartitionedCall/transformer/encoder/encoder_layer_0/multihead_self_attention/Reshape_1/shape/1", "StatefulPartitionedCall/transformer/encoder/encoder_layer_0/multihead_self_attention/Reshape_1/shape/2", "StatefulPartitionedCall/transformer/encoder/encoder_layer_0/multihead_self_attention/Reshape_1/shape/3"], "attr": {"T": {"type": "DT_INT32"}, "axis": {"i": "0"}, "N": {"i": "4"}}}, {"name": "StatefulPartitionedCall/transformer/encoder/encoder_layer_0/multihead_self_attention/Reshape_2/shape", "op": "Pack", "input": ["StatefulPartitionedCall/transformer/encoder/encoder_layer_0/multihead_self_attention/strided_slice", "StatefulPartitionedCall/transformer/encoder/encoder_layer_0/multihead_self_attention/Reshape_2/shape/1", "StatefulPartitionedCall/transformer/encoder/encoder_layer_0/multihead_self_attention/Reshape_2/shape/2", "StatefulPartitionedCall/transformer/encoder/encoder_layer_0/multihead_self_attention/Reshape_2/shape/3"], "attr": {"T": {"type": "DT_INT32"}, "axis": {"i": "0"}, "N": {"i": "4"}}}, {"name": "StatefulPartitionedCall/transformer/encoder/encoder_layer_0/multihead_self_attention/Reshape_3/shape", "op": "Pack", "input": ["StatefulPartitionedCall/transformer/encoder/encoder_layer_0/multihead_self_attention/strided_slice", "StatefulPartitionedCall/transformer/encoder/encoder_layer_0/multihead_self_attention/Reshape_3/shape/1", "StatefulPartitionedCall/transformer/encoder/encoder_layer_0/multihead_self_attention/Reshape_3/shape/2"], "attr": {"T": {"type": "DT_INT32"}, "axis": {"i": "0"}, "N": {"i": "3"}}}, {"name": "StatefulPartitionedCall/transformer/encoder/encoder_layer_0/multihead_self_attention/dense/Tensordot/stack", "op": "Pack", "input": ["StatefulPartitionedCall/transformer/encoder/encoder_layer_0/multihead_self_attention/dense/Tensordot/Prod", "StatefulPartitionedCall/transformer/encoder/encoder_layer_0/multihead_self_attention/dense/Tensordot/Prod_1"], "attr": {"N": {"i": "2"}, "T": {"type": "DT_INT32"}, "axis": {"i": "0"}}}, {"name": "StatefulPartitionedCall/transformer/encoder/encoder_layer_0/multihead_self_attention/dense/Tensordot_1/stack", "op": "Pack", "input": ["StatefulPartitionedCall/transformer/encoder/encoder_layer_0/multihead_self_attention/dense/Tensordot_1/Prod", "StatefulPartitionedCall/transformer/encoder/encoder_layer_0/multihead_self_attention/dense/Tensordot_1/Prod_1"], "attr": {"T": {"type": "DT_INT32"}, "axis": {"i": "0"}, "N": {"i": "2"}}}, {"name": "StatefulPartitionedCall/transformer/encoder/encoder_layer_0/multihead_self_attention/dense/Tensordot_2/stack", "op": "Pack", "input": ["StatefulPartitionedCall/transformer/encoder/encoder_layer_0/multihead_self_attention/dense/Tensordot_2/Prod", "StatefulPartitionedCall/transformer/encoder/encoder_layer_0/multihead_self_attention/dense/Tensordot_2/Prod_1"], "attr": {"T": {"type": "DT_INT32"}, "axis": {"i": "0"}, "N": {"i": "2"}}}, {"name": "StatefulPartitionedCall/transformer/encoder/encoder_layer_0/multihead_self_attention/dense/Tensordot/Reshape", "op": "Reshape", "input": ["StatefulPartitionedCall/transformer/encoder/positional_encoding/add", "StatefulPartitionedCall/transformer/encoder/encoder_layer_0/multihead_self_attention/dense/Tensordot/stack"], "attr": {"T": {"type": "DT_FLOAT"}, "Tshape": {"type": "DT_INT32"}}}, {"name": "StatefulPartitionedCall/transformer/encoder/encoder_layer_0/multihead_self_attention/dense/Tensordot_1/Reshape", "op": "Reshape", "input": ["StatefulPartitionedCall/transformer/encoder/positional_encoding/add", "StatefulPartitionedCall/transformer/encoder/encoder_layer_0/multihead_self_attention/dense/Tensordot_1/stack"], "attr": {"T": {"type": "DT_FLOAT"}, "Tshape": {"type": "DT_INT32"}}}, {"name": "StatefulPartitionedCall/transformer/encoder/encoder_layer_0/multihead_self_attention/dense/Tensordot_2/Reshape", "op": "Reshape", "input": ["StatefulPartitionedCall/transformer/encoder/positional_encoding/add", "StatefulPartitionedCall/transformer/encoder/encoder_layer_0/multihead_self_attention/dense/Tensordot_2/stack"], "attr": {"T": {"type": "DT_FLOAT"}, "Tshape": {"type": "DT_INT32"}}}, {"name": "StatefulPartitionedCall/transformer/encoder/encoder_layer_0/multihead_self_attention/dense/Tensordot/MatMul", "op": "MatMul", "input": ["StatefulPartitionedCall/transformer/encoder/encoder_layer_0/multihead_self_attention/dense/Tensordot/Reshape", "StatefulPartitionedCall/transformer/encoder/encoder_layer_0/multihead_self_attention/dense/Tensordot/ReadVariableOp"], "device": "/device:CPU:0", "attr": {"transpose_a": {"b": false}, "transpose_b": {"b": false}, "T": {"type": "DT_FLOAT"}}}, {"name": "StatefulPartitionedCall/transformer/encoder/encoder_layer_0/multihead_self_attention/dense/Tensordot_1/MatMul", "op": "MatMul", "input": ["StatefulPartitionedCall/transformer/encoder/encoder_layer_0/multihead_self_attention/dense/Tensordot_1/Reshape", "StatefulPartitionedCall/transformer/encoder/encoder_layer_0/multihead_self_attention/dense/Tensordot_1/ReadVariableOp"], "device": "/device:CPU:0", "attr": {"transpose_a": {"b": false}, "transpose_b": {"b": false}, "T": {"type": "DT_FLOAT"}}}, {"name": "StatefulPartitionedCall/transformer/encoder/encoder_layer_0/multihead_self_attention/dense/Tensordot_2/MatMul", "op": "MatMul", "input": ["StatefulPartitionedCall/transformer/encoder/encoder_layer_0/multihead_self_attention/dense/Tensordot_2/Reshape", "StatefulPartitionedCall/transformer/encoder/encoder_layer_0/multihead_self_attention/dense/Tensordot_2/ReadVariableOp"], "device": "/device:CPU:0", "attr": {"T": {"type": "DT_FLOAT"}, "transpose_a": {"b": false}, "transpose_b": {"b": false}}}, {"name": "StatefulPartitionedCall/transformer/encoder/encoder_layer_0/multihead_self_attention/dense/Tensordot", "op": "Reshape", "input": ["StatefulPartitionedCall/transformer/encoder/encoder_layer_0/multihead_self_attention/dense/Tensordot/MatMul", "StatefulPartitionedCall/transformer/encoder/encoder_layer_0/multihead_self_attention/dense/Tensordot/concat_1"], "attr": {"T": {"type": "DT_FLOAT"}, "Tshape": {"type": "DT_INT32"}}}, {"name": "StatefulPartitionedCall/transformer/encoder/encoder_layer_0/multihead_self_attention/dense/Tensordot_1", "op": "Reshape", "input": ["StatefulPartitionedCall/transformer/encoder/encoder_layer_0/multihead_self_attention/dense/Tensordot_1/MatMul", "StatefulPartitionedCall/transformer/encoder/encoder_layer_0/multihead_self_attention/dense/Tensordot_1/concat_1"], "attr": {"T": {"type": "DT_FLOAT"}, "Tshape": {"type": "DT_INT32"}}}, {"name": "StatefulPartitionedCall/transformer/encoder/encoder_layer_0/multihead_self_attention/dense/Tensordot_2", "op": "Reshape", "input": ["StatefulPartitionedCall/transformer/encoder/encoder_layer_0/multihead_self_attention/dense/Tensordot_2/MatMul", "StatefulPartitionedCall/transformer/encoder/encoder_layer_0/multihead_self_attention/dense/Tensordot_2/concat_1"], "attr": {"T": {"type": "DT_FLOAT"}, "Tshape": {"type": "DT_INT32"}}}, {"name": "StatefulPartitionedCall/transformer/encoder/encoder_layer_0/multihead_self_attention/dense/BiasAdd", "op": "BiasAdd", "input": ["StatefulPartitionedCall/transformer/encoder/encoder_layer_0/multihead_self_attention/dense/Tensordot", "StatefulPartitionedCall/transformer/encoder/encoder_layer_0/multihead_self_attention/dense/BiasAdd/ReadVariableOp"], "attr": {"T": {"type": "DT_FLOAT"}, "data_format": {"s": "TkhXQw=="}}}, {"name": "StatefulPartitionedCall/transformer/encoder/encoder_layer_0/multihead_self_attention/dense/BiasAdd_1", "op": "BiasAdd", "input": ["StatefulPartitionedCall/transformer/encoder/encoder_layer_0/multihead_self_attention/dense/Tensordot_1", "StatefulPartitionedCall/transformer/encoder/encoder_layer_0/multihead_self_attention/dense/BiasAdd_1/ReadVariableOp"], "attr": {"data_format": {"s": "TkhXQw=="}, "T": {"type": "DT_FLOAT"}}}, {"name": "StatefulPartitionedCall/transformer/encoder/encoder_layer_0/multihead_self_attention/dense/BiasAdd_2", "op": "BiasAdd", "input": ["StatefulPartitionedCall/transformer/encoder/encoder_layer_0/multihead_self_attention/dense/Tensordot_2", "StatefulPartitionedCall/transformer/encoder/encoder_layer_0/multihead_self_attention/dense/BiasAdd_2/ReadVariableOp"], "attr": {"T": {"type": "DT_FLOAT"}, "data_format": {"s": "TkhXQw=="}}}, {"name": "StatefulPartitionedCall/transformer/encoder/encoder_layer_0/multihead_self_attention/Reshape", "op": "Reshape", "input": ["StatefulPartitionedCall/transformer/encoder/encoder_layer_0/multihead_self_attention/dense/BiasAdd", "StatefulPartitionedCall/transformer/encoder/encoder_layer_0/multihead_self_attention/Reshape/shape"], "attr": {"T": {"type": "DT_FLOAT"}, "Tshape": {"type": "DT_INT32"}}}, {"name": "StatefulPartitionedCall/transformer/encoder/encoder_layer_0/multihead_self_attention/Reshape_1", "op": "Reshape", "input": ["StatefulPartitionedCall/transformer/encoder/encoder_layer_0/multihead_self_attention/dense/BiasAdd_1", "StatefulPartitionedCall/transformer/encoder/encoder_layer_0/multihead_self_attention/Reshape_1/shape"], "attr": {"Tshape": {"type": "DT_INT32"}, "T": {"type": "DT_FLOAT"}}}, {"name": "StatefulPartitionedCall/transformer/encoder/encoder_layer_0/multihead_self_attention/Reshape_2", "op": "Reshape", "input": ["StatefulPartitionedCall/transformer/encoder/encoder_layer_0/multihead_self_attention/dense/BiasAdd_2", "StatefulPartitionedCall/transformer/encoder/encoder_layer_0/multihead_self_attention/Reshape_2/shape"], "attr": {"T": {"type": "DT_FLOAT"}, "Tshape": {"type": "DT_INT32"}}}, {"name": "StatefulPartitionedCall/transformer/encoder/encoder_layer_0/multihead_self_attention/transpose", "op": "Transpose", "input": ["StatefulPartitionedCall/transformer/encoder/encoder_layer_0/multihead_self_attention/Reshape", "StatefulPartitionedCall/transformer/encoder/encoder_layer_0/multihead_self_attention/transpose/perm"], "attr": {"T": {"type": "DT_FLOAT"}, "Tperm": {"type": "DT_INT32"}}}, {"name": "StatefulPartitionedCall/transformer/encoder/encoder_layer_0/multihead_self_attention/transpose_1", "op": "Transpose", "input": ["StatefulPartitionedCall/transformer/encoder/encoder_layer_0/multihead_self_attention/Reshape_1", "StatefulPartitionedCall/transformer/encoder/encoder_layer_0/multihead_self_attention/transpose_1/perm"], "attr": {"T": {"type": "DT_FLOAT"}, "Tperm": {"type": "DT_INT32"}}}, {"name": "StatefulPartitionedCall/transformer/encoder/encoder_layer_0/multihead_self_attention/transpose_2", "op": "Transpose", "input": ["StatefulPartitionedCall/transformer/encoder/encoder_layer_0/multihead_self_attention/Reshape_2", "StatefulPartitionedCall/transformer/encoder/encoder_layer_0/multihead_self_attention/transpose_2/perm"], "attr": {"Tperm": {"type": "DT_INT32"}, "T": {"type": "DT_FLOAT"}}}, {"name": "StatefulPartitionedCall/transformer/encoder/encoder_layer_0/multihead_self_attention/MatMul", "op": "BatchMatMulV2", "input": ["StatefulPartitionedCall/transformer/encoder/encoder_layer_0/multihead_self_attention/transpose", "StatefulPartitionedCall/transformer/encoder/encoder_layer_0/multihead_self_attention/transpose_1"], "attr": {"adj_y": {"b": true}, "T": {"type": "DT_FLOAT"}, "adj_x": {"b": false}}}, {"name": "StatefulPartitionedCall/transformer/encoder/encoder_layer_0/multihead_self_attention/Shape_1", "op": "Shape", "input": ["StatefulPartitionedCall/transformer/encoder/encoder_layer_0/multihead_self_attention/transpose_1"], "attr": {"T": {"type": "DT_FLOAT"}, "out_type": {"type": "DT_INT32"}}}, {"name": "StatefulPartitionedCall/transformer/encoder/encoder_layer_0/multihead_self_attention/strided_slice_1", "op": "StridedSlice", "input": ["StatefulPartitionedCall/transformer/encoder/encoder_layer_0/multihead_self_attention/Shape_1", "StatefulPartitionedCall/transformer/encoder/encoder_layer_0/multihead_self_attention/strided_slice_1/stack", "StatefulPartitionedCall/transformer/encoder/encoder_layer_0/multihead_self_attention/strided_slice_1/stack_1", "StatefulPartitionedCall/transformer/encoder/encoder_layer_0/multihead_self_attention/strided_slice_1/stack_2"], "attr": {"Index": {"type": "DT_INT32"}, "T": {"type": "DT_INT32"}, "shrink_axis_mask": {"i": "1"}, "ellipsis_mask": {"i": "0"}, "begin_mask": {"i": "0"}, "new_axis_mask": {"i": "0"}, "end_mask": {"i": "0"}}}, {"name": "StatefulPartitionedCall/transformer/encoder/encoder_layer_0/multihead_self_attention/Cast", "op": "Cast", "input": ["StatefulPartitionedCall/transformer/encoder/encoder_layer_0/multihead_self_attention/strided_slice_1"], "attr": {"DstT": {"type": "DT_FLOAT"}, "SrcT": {"type": "DT_INT32"}, "Truncate": {"b": false}}}, {"name": "StatefulPartitionedCall/transformer/encoder/encoder_layer_0/multihead_self_attention/Sqrt", "op": "Rsqrt", "input": ["StatefulPartitionedCall/transformer/encoder/encoder_layer_0/multihead_self_attention/Cast"], "attr": {"T": {"type": "DT_FLOAT"}}}, {"name": "StatefulPartitionedCall/transformer/encoder/encoder_layer_0/multihead_self_attention/truediv", "op": "Mul", "input": ["StatefulPartitionedCall/transformer/encoder/encoder_layer_0/multihead_self_attention/MatMul", "StatefulPartitionedCall/transformer/encoder/encoder_layer_0/multihead_self_attention/Sqrt"], "attr": {"T": {"type": "DT_FLOAT"}}}, {"name": "StatefulPartitionedCall/transformer/encoder/encoder_layer_0/multihead_self_attention/add", "op": "AddV2", "input": ["StatefulPartitionedCall/transformer/encoder/encoder_layer_0/multihead_self_attention/truediv", "StatefulPartitionedCall/transformer/encoder/encoder_layer_0/multihead_self_attention/mul"], "attr": {"T": {"type": "DT_FLOAT"}}}, {"name": "StatefulPartitionedCall/transformer/encoder/encoder_layer_0/multihead_self_attention/Softmax", "op": "Softmax", "input": ["StatefulPartitionedCall/transformer/encoder/encoder_layer_0/multihead_self_attention/add"], "attr": {"T": {"type": "DT_FLOAT"}}}, {"name": "StatefulPartitionedCall/transformer/encoder/encoder_layer_0/multihead_self_attention/MatMul_1", "op": "BatchMatMulV2", "input": ["StatefulPartitionedCall/transformer/encoder/encoder_layer_0/multihead_self_attention/Softmax", "StatefulPartitionedCall/transformer/encoder/encoder_layer_0/multihead_self_attention/transpose_2"], "attr": {"adj_x": {"b": false}, "adj_y": {"b": false}, "T": {"type": "DT_FLOAT"}}}, {"name": "StatefulPartitionedCall/transformer/encoder/encoder_layer_0/multihead_self_attention/transpose_3", "op": "Transpose", "input": ["StatefulPartitionedCall/transformer/encoder/encoder_layer_0/multihead_self_attention/MatMul_1", "StatefulPartitionedCall/transformer/encoder/encoder_layer_0/multihead_self_attention/transpose_3/perm"], "attr": {"Tperm": {"type": "DT_INT32"}, "T": {"type": "DT_FLOAT"}}}, {"name": "StatefulPartitionedCall/transformer/encoder/encoder_layer_0/multihead_self_attention/Reshape_3", "op": "Reshape", "input": ["StatefulPartitionedCall/transformer/encoder/encoder_layer_0/multihead_self_attention/transpose_3", "StatefulPartitionedCall/transformer/encoder/encoder_layer_0/multihead_self_attention/Reshape_3/shape"], "attr": {"T": {"type": "DT_FLOAT"}, "Tshape": {"type": "DT_INT32"}}}, {"name": "StatefulPartitionedCall/transformer/encoder/encoder_layer_0/multihead_self_attention/dense_3/Tensordot/Shape", "op": "Shape", "input": ["StatefulPartitionedCall/transformer/encoder/encoder_layer_0/multihead_self_attention/Reshape_3"], "attr": {"T": {"type": "DT_FLOAT"}, "out_type": {"type": "DT_INT32"}}}, {"name": "StatefulPartitionedCall/transformer/encoder/encoder_layer_0/multihead_self_attention/dense_3/Tensordot/GatherV2_1", "op": "GatherV2", "input": ["StatefulPartitionedCall/transformer/encoder/encoder_layer_0/multihead_self_attention/dense_3/Tensordot/Shape", "StatefulPartitionedCall/transformer/encoder/encoder_layer_0/multihead_self_attention/dense_3/Tensordot/axes", "StatefulPartitionedCall/transformer/encoder/encoder_layer_0/multihead_self_attention/dense_3/Tensordot/GatherV2_1/axis"], "attr": {"Tparams": {"type": "DT_INT32"}, "Taxis": {"type": "DT_INT32"}, "batch_dims": {"i": "0"}, "Tindices": {"type": "DT_INT32"}}}, {"name": "StatefulPartitionedCall/transformer/encoder/encoder_layer_0/multihead_self_attention/dense_3/Tensordot/GatherV2", "op": "GatherV2", "input": ["StatefulPartitionedCall/transformer/encoder/encoder_layer_0/multihead_self_attention/dense_3/Tensordot/Shape", "StatefulPartitionedCall/transformer/encoder/encoder_layer_0/multihead_self_attention/dense_3/Tensordot/free", "StatefulPartitionedCall/transformer/encoder/encoder_layer_0/multihead_self_attention/dense_3/Tensordot/GatherV2/axis"], "attr": {"Taxis": {"type": "DT_INT32"}, "batch_dims": {"i": "0"}, "Tindices": {"type": "DT_INT32"}, "Tparams": {"type": "DT_INT32"}}}, {"name": "StatefulPartitionedCall/transformer/encoder/encoder_layer_0/multihead_self_attention/dense_3/Tensordot/Prod_1", "op": "Prod", "input": ["StatefulPartitionedCall/transformer/encoder/encoder_layer_0/multihead_self_attention/dense_3/Tensordot/GatherV2_1", "StatefulPartitionedCall/transformer/encoder/encoder_layer_0/multihead_self_attention/dense_3/Tensordot/Const_1"], "attr": {"T": {"type": "DT_INT32"}, "Tidx": {"type": "DT_INT32"}, "keep_dims": {"b": false}}}, {"name": "StatefulPartitionedCall/transformer/encoder/encoder_layer_0/multihead_self_attention/dense_3/Tensordot/Prod", "op": "Prod", "input": ["StatefulPartitionedCall/transformer/encoder/encoder_layer_0/multihead_self_attention/dense_3/Tensordot/GatherV2", "StatefulPartitionedCall/transformer/encoder/encoder_layer_0/multihead_self_attention/dense_3/Tensordot/Const"], "attr": {"Tidx": {"type": "DT_INT32"}, "keep_dims": {"b": false}, "T": {"type": "DT_INT32"}}}, {"name": "StatefulPartitionedCall/transformer/encoder/encoder_layer_0/multihead_self_attention/dense_3/Tensordot/concat_1", "op": "ConcatV2", "input": ["StatefulPartitionedCall/transformer/encoder/encoder_layer_0/multihead_self_attention/dense_3/Tensordot/GatherV2", "StatefulPartitionedCall/transformer/encoder/encoder_layer_0/multihead_self_attention/dense_3/Tensordot/Const_2", "StatefulPartitionedCall/transformer/encoder/encoder_layer_0/multihead_self_attention/dense_3/Tensordot/concat_1/axis"], "attr": {"Tidx": {"type": "DT_INT32"}, "T": {"type": "DT_INT32"}, "N": {"i": "2"}}}, {"name": "StatefulPartitionedCall/transformer/encoder/encoder_layer_0/multihead_self_attention/dense_3/Tensordot/stack", "op": "Pack", "input": ["StatefulPartitionedCall/transformer/encoder/encoder_layer_0/multihead_self_attention/dense_3/Tensordot/Prod", "StatefulPartitionedCall/transformer/encoder/encoder_layer_0/multihead_self_attention/dense_3/Tensordot/Prod_1"], "attr": {"N": {"i": "2"}, "T": {"type": "DT_INT32"}, "axis": {"i": "0"}}}, {"name": "StatefulPartitionedCall/transformer/encoder/encoder_layer_0/multihead_self_attention/dense_3/Tensordot/Reshape", "op": "Reshape", "input": ["StatefulPartitionedCall/transformer/encoder/encoder_layer_0/multihead_self_attention/transpose_3", "StatefulPartitionedCall/transformer/encoder/encoder_layer_0/multihead_self_attention/dense_3/Tensordot/stack"], "attr": {"T": {"type": "DT_FLOAT"}, "Tshape": {"type": "DT_INT32"}}}, {"name": "StatefulPartitionedCall/transformer/encoder/encoder_layer_0/multihead_self_attention/dense_3/Tensordot/MatMul", "op": "MatMul", "input": ["StatefulPartitionedCall/transformer/encoder/encoder_layer_0/multihead_self_attention/dense_3/Tensordot/Reshape", "StatefulPartitionedCall/transformer/encoder/encoder_layer_0/multihead_self_attention/dense_3/Tensordot/ReadVariableOp"], "device": "/device:CPU:0", "attr": {"transpose_a": {"b": false}, "transpose_b": {"b": false}, "T": {"type": "DT_FLOAT"}}}, {"name": "StatefulPartitionedCall/transformer/encoder/encoder_layer_0/multihead_self_attention/dense_3/Tensordot", "op": "Reshape", "input": ["StatefulPartitionedCall/transformer/encoder/encoder_layer_0/multihead_self_attention/dense_3/Tensordot/MatMul", "StatefulPartitionedCall/transformer/encoder/encoder_layer_0/multihead_self_attention/dense_3/Tensordot/concat_1"], "attr": {"T": {"type": "DT_FLOAT"}, "Tshape": {"type": "DT_INT32"}}}, {"name": "StatefulPartitionedCall/transformer/encoder/encoder_layer_0/multihead_self_attention/dense_3/BiasAdd", "op": "BiasAdd", "input": ["StatefulPartitionedCall/transformer/encoder/encoder_layer_0/multihead_self_attention/dense_3/Tensordot", "StatefulPartitionedCall/transformer/encoder/encoder_layer_0/multihead_self_attention/dense_3/BiasAdd/ReadVariableOp"], "attr": {"T": {"type": "DT_FLOAT"}, "data_format": {"s": "TkhXQw=="}}}, {"name": "StatefulPartitionedCall/transformer/encoder/encoder_layer_0/tf.__operators__.add/AddV2", "op": "AddV2", "input": ["StatefulPartitionedCall/transformer/encoder/positional_encoding/add", "StatefulPartitionedCall/transformer/encoder/encoder_layer_0/multihead_self_attention/dense_3/BiasAdd"], "attr": {"T": {"type": "DT_FLOAT"}}}, {"name": "StatefulPartitionedCall/transformer/encoder/encoder_layer_0/layer_normalization/moments/mean", "op": "Mean", "input": ["StatefulPartitionedCall/transformer/encoder/encoder_layer_0/tf.__operators__.add/AddV2", "StatefulPartitionedCall/transformer/encoder/encoder_layer_0/layer_normalization/moments/mean/reduction_indices"], "attr": {"T": {"type": "DT_FLOAT"}, "Tidx": {"type": "DT_INT32"}, "keep_dims": {"b": true}}}, {"name": "StatefulPartitionedCall/transformer/encoder/encoder_layer_0/layer_normalization/moments/SquaredDifference", "op": "SquaredDifference", "input": ["StatefulPartitionedCall/transformer/encoder/encoder_layer_0/tf.__operators__.add/AddV2", "StatefulPartitionedCall/transformer/encoder/encoder_layer_0/layer_normalization/moments/mean"], "attr": {"T": {"type": "DT_FLOAT"}}}, {"name": "StatefulPartitionedCall/transformer/encoder/encoder_layer_0/layer_normalization/moments/variance", "op": "Mean", "input": ["StatefulPartitionedCall/transformer/encoder/encoder_layer_0/layer_normalization/moments/SquaredDifference", "StatefulPartitionedCall/transformer/encoder/encoder_layer_0/layer_normalization/moments/variance/reduction_indices"], "attr": {"Tidx": {"type": "DT_INT32"}, "keep_dims": {"b": true}, "T": {"type": "DT_FLOAT"}}}, {"name": "StatefulPartitionedCall/transformer/encoder/encoder_layer_0/layer_normalization/batchnorm/add", "op": "AddV2", "input": ["StatefulPartitionedCall/transformer/encoder/encoder_layer_0/layer_normalization/moments/variance", "StatefulPartitionedCall/transformer/encoder/encoder_layer_0/layer_normalization/batchnorm/add/y"], "attr": {"T": {"type": "DT_FLOAT"}}}, {"name": "StatefulPartitionedCall/transformer/encoder/encoder_layer_0/layer_normalization/batchnorm/Rsqrt", "op": "Rsqrt", "input": ["StatefulPartitionedCall/transformer/encoder/encoder_layer_0/layer_normalization/batchnorm/add"], "attr": {"T": {"type": "DT_FLOAT"}}}, {"name": "StatefulPartitionedCall/transformer/encoder/encoder_layer_0/layer_normalization/batchnorm/mul", "op": "Mul", "input": ["StatefulPartitionedCall/transformer/encoder/encoder_layer_0/layer_normalization/batchnorm/Rsqrt", "StatefulPartitionedCall/transformer/encoder/encoder_layer_0/layer_normalization/batchnorm/mul/ReadVariableOp"], "attr": {"T": {"type": "DT_FLOAT"}}}, {"name": "StatefulPartitionedCall/transformer/encoder/encoder_layer_0/layer_normalization/batchnorm/mul_2", "op": "Mul", "input": ["StatefulPartitionedCall/transformer/encoder/encoder_layer_0/layer_normalization/moments/mean", "StatefulPartitionedCall/transformer/encoder/encoder_layer_0/layer_normalization/batchnorm/mul"], "attr": {"T": {"type": "DT_FLOAT"}}}, {"name": "StatefulPartitionedCall/transformer/encoder/encoder_layer_0/layer_normalization/batchnorm/mul_1", "op": "Mul", "input": ["StatefulPartitionedCall/transformer/encoder/encoder_layer_0/tf.__operators__.add/AddV2", "StatefulPartitionedCall/transformer/encoder/encoder_layer_0/layer_normalization/batchnorm/mul"], "attr": {"T": {"type": "DT_FLOAT"}}}, {"name": "StatefulPartitionedCall/transformer/encoder/encoder_layer_0/layer_normalization/batchnorm/sub", "op": "Sub", "input": ["StatefulPartitionedCall/transformer/encoder/encoder_layer_0/layer_normalization/batchnorm/ReadVariableOp", "StatefulPartitionedCall/transformer/encoder/encoder_layer_0/layer_normalization/batchnorm/mul_2"], "attr": {"T": {"type": "DT_FLOAT"}}}, {"name": "StatefulPartitionedCall/transformer/encoder/encoder_layer_0/layer_normalization/batchnorm/add_1", "op": "AddV2", "input": ["StatefulPartitionedCall/transformer/encoder/encoder_layer_0/layer_normalization/batchnorm/mul_1", "StatefulPartitionedCall/transformer/encoder/encoder_layer_0/layer_normalization/batchnorm/sub"], "attr": {"T": {"type": "DT_FLOAT"}}}, {"name": "StatefulPartitionedCall/transformer/encoder/encoder_layer_0/dense_4/Tensordot/Shape", "op": "Shape", "input": ["StatefulPartitionedCall/transformer/encoder/encoder_layer_0/layer_normalization/batchnorm/add_1"], "attr": {"T": {"type": "DT_FLOAT"}, "out_type": {"type": "DT_INT32"}}}, {"name": "StatefulPartitionedCall/transformer/encoder/encoder_layer_0/dense_4/Tensordot/GatherV2_1", "op": "GatherV2", "input": ["StatefulPartitionedCall/transformer/encoder/encoder_layer_0/dense_4/Tensordot/Shape", "StatefulPartitionedCall/transformer/encoder/encoder_layer_0/dense_4/Tensordot/axes", "StatefulPartitionedCall/transformer/encoder/encoder_layer_0/dense_4/Tensordot/GatherV2_1/axis"], "attr": {"Tparams": {"type": "DT_INT32"}, "Taxis": {"type": "DT_INT32"}, "batch_dims": {"i": "0"}, "Tindices": {"type": "DT_INT32"}}}, {"name": "StatefulPartitionedCall/transformer/encoder/encoder_layer_0/dense_4/Tensordot/GatherV2", "op": "GatherV2", "input": ["StatefulPartitionedCall/transformer/encoder/encoder_layer_0/dense_4/Tensordot/Shape", "StatefulPartitionedCall/transformer/encoder/encoder_layer_0/dense_4/Tensordot/free", "StatefulPartitionedCall/transformer/encoder/encoder_layer_0/dense_4/Tensordot/GatherV2/axis"], "attr": {"Taxis": {"type": "DT_INT32"}, "batch_dims": {"i": "0"}, "Tindices": {"type": "DT_INT32"}, "Tparams": {"type": "DT_INT32"}}}, {"name": "StatefulPartitionedCall/transformer/encoder/encoder_layer_0/dense_4/Tensordot/Prod_1", "op": "Prod", "input": ["StatefulPartitionedCall/transformer/encoder/encoder_layer_0/dense_4/Tensordot/GatherV2_1", "StatefulPartitionedCall/transformer/encoder/encoder_layer_0/dense_4/Tensordot/Const_1"], "attr": {"Tidx": {"type": "DT_INT32"}, "keep_dims": {"b": false}, "T": {"type": "DT_INT32"}}}, {"name": "StatefulPartitionedCall/transformer/encoder/encoder_layer_0/dense_4/Tensordot/Prod", "op": "Prod", "input": ["StatefulPartitionedCall/transformer/encoder/encoder_layer_0/dense_4/Tensordot/GatherV2", "StatefulPartitionedCall/transformer/encoder/encoder_layer_0/dense_4/Tensordot/Const"], "attr": {"Tidx": {"type": "DT_INT32"}, "keep_dims": {"b": false}, "T": {"type": "DT_INT32"}}}, {"name": "StatefulPartitionedCall/transformer/encoder/encoder_layer_0/dense_4/Tensordot/concat_1", "op": "ConcatV2", "input": ["StatefulPartitionedCall/transformer/encoder/encoder_layer_0/dense_4/Tensordot/GatherV2", "StatefulPartitionedCall/transformer/encoder/encoder_layer_0/dense_4/Tensordot/Const_2", "StatefulPartitionedCall/transformer/encoder/encoder_layer_0/dense_4/Tensordot/concat_1/axis"], "attr": {"T": {"type": "DT_INT32"}, "N": {"i": "2"}, "Tidx": {"type": "DT_INT32"}}}, {"name": "StatefulPartitionedCall/transformer/encoder/encoder_layer_0/dense_4/Tensordot/stack", "op": "Pack", "input": ["StatefulPartitionedCall/transformer/encoder/encoder_layer_0/dense_4/Tensordot/Prod", "StatefulPartitionedCall/transformer/encoder/encoder_layer_0/dense_4/Tensordot/Prod_1"], "attr": {"axis": {"i": "0"}, "N": {"i": "2"}, "T": {"type": "DT_INT32"}}}, {"name": "StatefulPartitionedCall/transformer/encoder/encoder_layer_0/dense_4/Tensordot/Reshape", "op": "Reshape", "input": ["StatefulPartitionedCall/transformer/encoder/encoder_layer_0/layer_normalization/batchnorm/add_1", "StatefulPartitionedCall/transformer/encoder/encoder_layer_0/dense_4/Tensordot/stack"], "attr": {"Tshape": {"type": "DT_INT32"}, "T": {"type": "DT_FLOAT"}}}, {"name": "StatefulPartitionedCall/transformer/encoder/encoder_layer_0/dense_4/Tensordot/MatMul", "op": "MatMul", "input": ["StatefulPartitionedCall/transformer/encoder/encoder_layer_0/dense_4/Tensordot/Reshape", "StatefulPartitionedCall/transformer/encoder/encoder_layer_0/dense_4/Tensordot/ReadVariableOp"], "device": "/device:CPU:0", "attr": {"transpose_a": {"b": false}, "transpose_b": {"b": false}, "T": {"type": "DT_FLOAT"}}}, {"name": "StatefulPartitionedCall/transformer/encoder/encoder_layer_0/dense_4/Tensordot", "op": "Reshape", "input": ["StatefulPartitionedCall/transformer/encoder/encoder_layer_0/dense_4/Tensordot/MatMul", "StatefulPartitionedCall/transformer/encoder/encoder_layer_0/dense_4/Tensordot/concat_1"], "attr": {"T": {"type": "DT_FLOAT"}, "Tshape": {"type": "DT_INT32"}}}, {"name": "StatefulPartitionedCall/transformer/encoder/encoder_layer_0/dense_4/BiasAdd", "op": "BiasAdd", "input": ["StatefulPartitionedCall/transformer/encoder/encoder_layer_0/dense_4/Tensordot", "StatefulPartitionedCall/transformer/encoder/encoder_layer_0/dense_4/BiasAdd/ReadVariableOp"], "attr": {"T": {"type": "DT_FLOAT"}, "data_format": {"s": "TkhXQw=="}}}, {"name": "StatefulPartitionedCall/transformer/encoder/encoder_layer_0/dense_4/Relu", "op": "Relu", "input": ["StatefulPartitionedCall/transformer/encoder/encoder_layer_0/dense_4/BiasAdd"], "attr": {"T": {"type": "DT_FLOAT"}}}, {"name": "StatefulPartitionedCall/transformer/encoder/encoder_layer_0/dense_5/Tensordot/Shape", "op": "Shape", "input": ["StatefulPartitionedCall/transformer/encoder/encoder_layer_0/dense_4/Relu"], "attr": {"T": {"type": "DT_FLOAT"}, "out_type": {"type": "DT_INT32"}}}, {"name": "StatefulPartitionedCall/transformer/encoder/encoder_layer_0/dense_5/Tensordot/GatherV2_1", "op": "GatherV2", "input": ["StatefulPartitionedCall/transformer/encoder/encoder_layer_0/dense_5/Tensordot/Shape", "StatefulPartitionedCall/transformer/encoder/encoder_layer_0/dense_5/Tensordot/axes", "StatefulPartitionedCall/transformer/encoder/encoder_layer_0/dense_5/Tensordot/GatherV2_1/axis"], "attr": {"Tindices": {"type": "DT_INT32"}, "Tparams": {"type": "DT_INT32"}, "Taxis": {"type": "DT_INT32"}, "batch_dims": {"i": "0"}}}, {"name": "StatefulPartitionedCall/transformer/encoder/encoder_layer_0/dense_5/Tensordot/GatherV2", "op": "GatherV2", "input": ["StatefulPartitionedCall/transformer/encoder/encoder_layer_0/dense_5/Tensordot/Shape", "StatefulPartitionedCall/transformer/encoder/encoder_layer_0/dense_5/Tensordot/free", "StatefulPartitionedCall/transformer/encoder/encoder_layer_0/dense_5/Tensordot/GatherV2/axis"], "attr": {"batch_dims": {"i": "0"}, "Tindices": {"type": "DT_INT32"}, "Tparams": {"type": "DT_INT32"}, "Taxis": {"type": "DT_INT32"}}}, {"name": "StatefulPartitionedCall/transformer/encoder/encoder_layer_0/dense_5/Tensordot/Prod_1", "op": "Prod", "input": ["StatefulPartitionedCall/transformer/encoder/encoder_layer_0/dense_5/Tensordot/GatherV2_1", "StatefulPartitionedCall/transformer/encoder/encoder_layer_0/dense_5/Tensordot/Const_1"], "attr": {"Tidx": {"type": "DT_INT32"}, "keep_dims": {"b": false}, "T": {"type": "DT_INT32"}}}, {"name": "StatefulPartitionedCall/transformer/encoder/encoder_layer_0/dense_5/Tensordot/Prod", "op": "Prod", "input": ["StatefulPartitionedCall/transformer/encoder/encoder_layer_0/dense_5/Tensordot/GatherV2", "StatefulPartitionedCall/transformer/encoder/encoder_layer_0/dense_5/Tensordot/Const"], "attr": {"T": {"type": "DT_INT32"}, "Tidx": {"type": "DT_INT32"}, "keep_dims": {"b": false}}}, {"name": "StatefulPartitionedCall/transformer/encoder/encoder_layer_0/dense_5/Tensordot/concat_1", "op": "ConcatV2", "input": ["StatefulPartitionedCall/transformer/encoder/encoder_layer_0/dense_5/Tensordot/GatherV2", "StatefulPartitionedCall/transformer/encoder/encoder_layer_0/dense_5/Tensordot/Const_2", "StatefulPartitionedCall/transformer/encoder/encoder_layer_0/dense_5/Tensordot/concat_1/axis"], "attr": {"Tidx": {"type": "DT_INT32"}, "T": {"type": "DT_INT32"}, "N": {"i": "2"}}}, {"name": "StatefulPartitionedCall/transformer/encoder/encoder_layer_0/dense_5/Tensordot/stack", "op": "Pack", "input": ["StatefulPartitionedCall/transformer/encoder/encoder_layer_0/dense_5/Tensordot/Prod", "StatefulPartitionedCall/transformer/encoder/encoder_layer_0/dense_5/Tensordot/Prod_1"], "attr": {"T": {"type": "DT_INT32"}, "axis": {"i": "0"}, "N": {"i": "2"}}}, {"name": "StatefulPartitionedCall/transformer/encoder/encoder_layer_0/dense_5/Tensordot/Reshape", "op": "Reshape", "input": ["StatefulPartitionedCall/transformer/encoder/encoder_layer_0/dense_4/Relu", "StatefulPartitionedCall/transformer/encoder/encoder_layer_0/dense_5/Tensordot/stack"], "attr": {"T": {"type": "DT_FLOAT"}, "Tshape": {"type": "DT_INT32"}}}, {"name": "StatefulPartitionedCall/transformer/encoder/encoder_layer_0/dense_5/Tensordot/MatMul", "op": "MatMul", "input": ["StatefulPartitionedCall/transformer/encoder/encoder_layer_0/dense_5/Tensordot/Reshape", "StatefulPartitionedCall/transformer/encoder/encoder_layer_0/dense_5/Tensordot/ReadVariableOp"], "device": "/device:CPU:0", "attr": {"T": {"type": "DT_FLOAT"}, "transpose_a": {"b": false}, "transpose_b": {"b": false}}}, {"name": "StatefulPartitionedCall/transformer/encoder/encoder_layer_0/dense_5/Tensordot", "op": "Reshape", "input": ["StatefulPartitionedCall/transformer/encoder/encoder_layer_0/dense_5/Tensordot/MatMul", "StatefulPartitionedCall/transformer/encoder/encoder_layer_0/dense_5/Tensordot/concat_1"], "attr": {"T": {"type": "DT_FLOAT"}, "Tshape": {"type": "DT_INT32"}}}, {"name": "StatefulPartitionedCall/transformer/encoder/encoder_layer_0/dense_5/BiasAdd", "op": "BiasAdd", "input": ["StatefulPartitionedCall/transformer/encoder/encoder_layer_0/dense_5/Tensordot", "StatefulPartitionedCall/transformer/encoder/encoder_layer_0/dense_5/BiasAdd/ReadVariableOp"], "attr": {"T": {"type": "DT_FLOAT"}, "data_format": {"s": "TkhXQw=="}}}, {"name": "StatefulPartitionedCall/transformer/encoder/encoder_layer_0/tf.__operators__.add_1/AddV2", "op": "AddV2", "input": ["StatefulPartitionedCall/transformer/encoder/encoder_layer_0/layer_normalization/batchnorm/add_1", "StatefulPartitionedCall/transformer/encoder/encoder_layer_0/dense_5/BiasAdd"], "attr": {"T": {"type": "DT_FLOAT"}}}, {"name": "StatefulPartitionedCall/transformer/encoder/encoder_layer_0/layer_normalization_1/moments/mean", "op": "Mean", "input": ["StatefulPartitionedCall/transformer/encoder/encoder_layer_0/tf.__operators__.add_1/AddV2", "StatefulPartitionedCall/transformer/encoder/encoder_layer_0/layer_normalization_1/moments/mean/reduction_indices"], "attr": {"Tidx": {"type": "DT_INT32"}, "keep_dims": {"b": true}, "T": {"type": "DT_FLOAT"}}}, {"name": "StatefulPartitionedCall/transformer/encoder/encoder_layer_0/layer_normalization_1/moments/SquaredDifference", "op": "SquaredDifference", "input": ["StatefulPartitionedCall/transformer/encoder/encoder_layer_0/tf.__operators__.add_1/AddV2", "StatefulPartitionedCall/transformer/encoder/encoder_layer_0/layer_normalization_1/moments/mean"], "attr": {"T": {"type": "DT_FLOAT"}}}, {"name": "StatefulPartitionedCall/transformer/encoder/encoder_layer_0/layer_normalization_1/moments/variance", "op": "Mean", "input": ["StatefulPartitionedCall/transformer/encoder/encoder_layer_0/layer_normalization_1/moments/SquaredDifference", "StatefulPartitionedCall/transformer/encoder/encoder_layer_0/layer_normalization_1/moments/variance/reduction_indices"], "attr": {"Tidx": {"type": "DT_INT32"}, "keep_dims": {"b": true}, "T": {"type": "DT_FLOAT"}}}, {"name": "StatefulPartitionedCall/transformer/encoder/encoder_layer_0/layer_normalization_1/batchnorm/add", "op": "AddV2", "input": ["StatefulPartitionedCall/transformer/encoder/encoder_layer_0/layer_normalization_1/moments/variance", "StatefulPartitionedCall/transformer/encoder/encoder_layer_0/layer_normalization_1/batchnorm/add/y"], "attr": {"T": {"type": "DT_FLOAT"}}}, {"name": "StatefulPartitionedCall/transformer/encoder/encoder_layer_0/layer_normalization_1/batchnorm/Rsqrt", "op": "Rsqrt", "input": ["StatefulPartitionedCall/transformer/encoder/encoder_layer_0/layer_normalization_1/batchnorm/add"], "attr": {"T": {"type": "DT_FLOAT"}}}, {"name": "StatefulPartitionedCall/transformer/encoder/encoder_layer_0/layer_normalization_1/batchnorm/mul", "op": "Mul", "input": ["StatefulPartitionedCall/transformer/encoder/encoder_layer_0/layer_normalization_1/batchnorm/Rsqrt", "StatefulPartitionedCall/transformer/encoder/encoder_layer_0/layer_normalization_1/batchnorm/mul/ReadVariableOp"], "attr": {"T": {"type": "DT_FLOAT"}}}, {"name": "StatefulPartitionedCall/transformer/encoder/encoder_layer_0/layer_normalization_1/batchnorm/mul_2", "op": "Mul", "input": ["StatefulPartitionedCall/transformer/encoder/encoder_layer_0/layer_normalization_1/moments/mean", "StatefulPartitionedCall/transformer/encoder/encoder_layer_0/layer_normalization_1/batchnorm/mul"], "attr": {"T": {"type": "DT_FLOAT"}}}, {"name": "StatefulPartitionedCall/transformer/encoder/encoder_layer_0/layer_normalization_1/batchnorm/mul_1", "op": "Mul", "input": ["StatefulPartitionedCall/transformer/encoder/encoder_layer_0/tf.__operators__.add_1/AddV2", "StatefulPartitionedCall/transformer/encoder/encoder_layer_0/layer_normalization_1/batchnorm/mul"], "attr": {"T": {"type": "DT_FLOAT"}}}, {"name": "StatefulPartitionedCall/transformer/encoder/encoder_layer_0/layer_normalization_1/batchnorm/sub", "op": "Sub", "input": ["StatefulPartitionedCall/transformer/encoder/encoder_layer_0/layer_normalization_1/batchnorm/ReadVariableOp", "StatefulPartitionedCall/transformer/encoder/encoder_layer_0/layer_normalization_1/batchnorm/mul_2"], "attr": {"T": {"type": "DT_FLOAT"}}}, {"name": "StatefulPartitionedCall/transformer/encoder/encoder_layer_0/layer_normalization_1/batchnorm/add_1", "op": "AddV2", "input": ["StatefulPartitionedCall/transformer/encoder/encoder_layer_0/layer_normalization_1/batchnorm/mul_1", "StatefulPartitionedCall/transformer/encoder/encoder_layer_0/layer_normalization_1/batchnorm/sub"], "attr": {"T": {"type": "DT_FLOAT"}}}, {"name": "StatefulPartitionedCall/transformer/dense_6/Tensordot/Shape", "op": "Shape", "input": ["StatefulPartitionedCall/transformer/encoder/encoder_layer_0/layer_normalization_1/batchnorm/add_1"], "attr": {"T": {"type": "DT_FLOAT"}, "out_type": {"type": "DT_INT32"}}}, {"name": "StatefulPartitionedCall/transformer/dense_6/Tensordot/GatherV2_1", "op": "GatherV2", "input": ["StatefulPartitionedCall/transformer/dense_6/Tensordot/Shape", "StatefulPartitionedCall/transformer/dense_6/Tensordot/axes", "StatefulPartitionedCall/transformer/dense_6/Tensordot/GatherV2_1/axis"], "attr": {"Taxis": {"type": "DT_INT32"}, "batch_dims": {"i": "0"}, "Tindices": {"type": "DT_INT32"}, "Tparams": {"type": "DT_INT32"}}}, {"name": "StatefulPartitionedCall/transformer/dense_6/Tensordot/GatherV2", "op": "GatherV2", "input": ["StatefulPartitionedCall/transformer/dense_6/Tensordot/Shape", "StatefulPartitionedCall/transformer/dense_6/Tensordot/free", "StatefulPartitionedCall/transformer/dense_6/Tensordot/GatherV2/axis"], "attr": {"Taxis": {"type": "DT_INT32"}, "batch_dims": {"i": "0"}, "Tindices": {"type": "DT_INT32"}, "Tparams": {"type": "DT_INT32"}}}, {"name": "StatefulPartitionedCall/transformer/dense_6/Tensordot/Prod_1", "op": "Prod", "input": ["StatefulPartitionedCall/transformer/dense_6/Tensordot/GatherV2_1", "StatefulPartitionedCall/transformer/dense_6/Tensordot/Const_1"], "attr": {"Tidx": {"type": "DT_INT32"}, "keep_dims": {"b": false}, "T": {"type": "DT_INT32"}}}, {"name": "StatefulPartitionedCall/transformer/dense_6/Tensordot/Prod", "op": "Prod", "input": ["StatefulPartitionedCall/transformer/dense_6/Tensordot/GatherV2", "StatefulPartitionedCall/transformer/dense_6/Tensordot/Const"], "attr": {"Tidx": {"type": "DT_INT32"}, "keep_dims": {"b": false}, "T": {"type": "DT_INT32"}}}, {"name": "StatefulPartitionedCall/transformer/dense_6/Tensordot/concat_1", "op": "ConcatV2", "input": ["StatefulPartitionedCall/transformer/dense_6/Tensordot/GatherV2", "StatefulPartitionedCall/transformer/dense_6/Tensordot/Const_2", "StatefulPartitionedCall/transformer/dense_6/Tensordot/concat_1/axis"], "attr": {"N": {"i": "2"}, "Tidx": {"type": "DT_INT32"}, "T": {"type": "DT_INT32"}}}, {"name": "StatefulPartitionedCall/transformer/dense_6/Tensordot/stack", "op": "Pack", "input": ["StatefulPartitionedCall/transformer/dense_6/Tensordot/Prod", "StatefulPartitionedCall/transformer/dense_6/Tensordot/Prod_1"], "attr": {"T": {"type": "DT_INT32"}, "axis": {"i": "0"}, "N": {"i": "2"}}}, {"name": "StatefulPartitionedCall/transformer/dense_6/Tensordot/Reshape", "op": "Reshape", "input": ["StatefulPartitionedCall/transformer/encoder/encoder_layer_0/layer_normalization_1/batchnorm/add_1", "StatefulPartitionedCall/transformer/dense_6/Tensordot/stack"], "attr": {"T": {"type": "DT_FLOAT"}, "Tshape": {"type": "DT_INT32"}}}, {"name": "StatefulPartitionedCall/transformer/dense_6/Tensordot/MatMul", "op": "MatMul", "input": ["StatefulPartitionedCall/transformer/dense_6/Tensordot/Reshape", "StatefulPartitionedCall/transformer/dense_6/Tensordot/ReadVariableOp"], "device": "/device:CPU:0", "attr": {"T": {"type": "DT_FLOAT"}, "transpose_a": {"b": false}, "transpose_b": {"b": false}}}, {"name": "StatefulPartitionedCall/transformer/dense_6/Tensordot", "op": "Reshape", "input": ["StatefulPartitionedCall/transformer/dense_6/Tensordot/MatMul", "StatefulPartitionedCall/transformer/dense_6/Tensordot/concat_1"], "attr": {"T": {"type": "DT_FLOAT"}, "Tshape": {"type": "DT_INT32"}}}, {"name": "StatefulPartitionedCall/transformer/dense_6/BiasAdd", "op": "BiasAdd", "input": ["StatefulPartitionedCall/transformer/dense_6/Tensordot", "StatefulPartitionedCall/transformer/dense_6/BiasAdd/ReadVariableOp"], "attr": {"T": {"type": "DT_FLOAT"}, "data_format": {"s": "TkhXQw=="}}}, {"name": "StatefulPartitionedCall/transformer/global_average_pooling1d/Mean", "op": "Mean", "input": ["StatefulPartitionedCall/transformer/dense_6/BiasAdd", "StatefulPartitionedCall/transformer/global_average_pooling1d/Mean/reduction_indices"], "attr": {"T": {"type": "DT_FLOAT"}, "Tidx": {"type": "DT_INT32"}, "keep_dims": {"b": false}}}, {"name": "StatefulPartitionedCall/transformer/outputs/BiasAdd", "op": "_FusedMatMul", "input": ["StatefulPartitionedCall/transformer/global_average_pooling1d/Mean", "StatefulPartitionedCall/transformer/outputs/MatMul/ReadVariableOp", "StatefulPartitionedCall/transformer/outputs/BiasAdd/ReadVariableOp"], "device": "/device:CPU:0", "attr": {"T": {"type": "DT_FLOAT"}, "num_args": {"i": "1"}, "epsilon": {"f": 0.0}, "fused_ops": {"list": {"s": ["Qmlhc0FkZA=="]}}, "transpose_a": {"b": false}, "transpose_b": {"b": false}}}, {"name": "StatefulPartitionedCall/transformer/outputs/Sigmoid", "op": "Sigmoid", "input": ["StatefulPartitionedCall/transformer/outputs/BiasAdd"], "attr": {"T": {"type": "DT_FLOAT"}}}, {"name": "Identity", "op": "Identity", "input": ["StatefulPartitionedCall/transformer/outputs/Sigmoid"], "attr": {"T": {"type": "DT_FLOAT"}}}], "library": {}, "versions": {"producer": 561}}, "weightsManifest": [{"paths": ["group1-shard1of1.bin"], "weights": [{"name": "StatefulPartitionedCall/transformer/dense_6/Tensordot/Const", "shape": [1], "dtype": "int32"}, {"name": "StatefulPartitionedCall/transformer/dense_6/Tensordot/axes", "shape": [1], "dtype": "int32"}, {"name": "StatefulPartitionedCall/transformer/dense_6/Tensordot/GatherV2_1/axis", "shape": [], "dtype": "int32"}, {"name": "StatefulPartitionedCall/transformer/dense_6/Tensordot/Const_1", "shape": [1], "dtype": "int32"}, {"name": "StatefulPartitionedCall/transformer/dense_6/Tensordot/ReadVariableOp", "shape": [8, 8], "dtype": "float32"}, {"name": "StatefulPartitionedCall/transformer/encoder/encoder_layer_0/layer_normalization_1/batchnorm/ReadVariableOp", "shape": [8], "dtype": "float32"}, {"name": "StatefulPartitionedCall/transformer/encoder/encoder_layer_0/dense_5/Tensordot/Const", "shape": [1], "dtype": "int32"}, {"name": "StatefulPartitionedCall/transformer/encoder/encoder_layer_0/dense_5/Tensordot/axes", "shape": [1], "dtype": "int32"}, {"name": "StatefulPartitionedCall/transformer/encoder/encoder_layer_0/dense_5/Tensordot/GatherV2_1/axis", "shape": [], "dtype": "int32"}, {"name": "StatefulPartitionedCall/transformer/encoder/encoder_layer_0/dense_5/Tensordot/Const_1", "shape": [1], "dtype": "int32"}, {"name": "StatefulPartitionedCall/transformer/encoder/encoder_layer_0/dense_5/Tensordot/ReadVariableOp", "shape": [8, 8], "dtype": "float32"}, {"name": "StatefulPartitionedCall/transformer/encoder/encoder_layer_0/dense_4/Tensordot/Const", "shape": [1], "dtype": "int32"}, {"name": "StatefulPartitionedCall/transformer/encoder/encoder_layer_0/dense_4/Tensordot/axes", "shape": [1], "dtype": "int32"}, {"name": "StatefulPartitionedCall/transformer/encoder/encoder_layer_0/dense_4/Tensordot/GatherV2_1/axis", "shape": [], "dtype": "int32"}, {"name": "StatefulPartitionedCall/transformer/encoder/encoder_layer_0/dense_4/Tensordot/Const_1", "shape": [1], "dtype": "int32"}, {"name": "StatefulPartitionedCall/transformer/encoder/encoder_layer_0/dense_4/Tensordot/ReadVariableOp", "shape": [8, 8], "dtype": "float32"}, {"name": "StatefulPartitionedCall/transformer/encoder/encoder_layer_0/layer_normalization/batchnorm/ReadVariableOp", "shape": [8], "dtype": "float32"}, {"name": "StatefulPartitionedCall/transformer/encoder/encoder_layer_0/multihead_self_attention/dense_3/Tensordot/Const", "shape": [1], "dtype": "int32"}, {"name": "StatefulPartitionedCall/transformer/encoder/encoder_layer_0/multihead_self_attention/dense_3/Tensordot/axes", "shape": [1], "dtype": "int32"}, {"name": "StatefulPartitionedCall/transformer/encoder/encoder_layer_0/multihead_self_attention/dense_3/Tensordot/GatherV2_1/axis", "shape": [], "dtype": "int32"}, {"name": "StatefulPartitionedCall/transformer/encoder/encoder_layer_0/multihead_self_attention/dense_3/Tensordot/Const_1", "shape": [1], "dtype": "int32"}, {"name": "StatefulPartitionedCall/transformer/encoder/encoder_layer_0/multihead_self_attention/dense_3/Tensordot/ReadVariableOp", "shape": [8, 8], "dtype": "float32"}, {"name": "StatefulPartitionedCall/transformer/encoder/encoder_layer_0/multihead_self_attention/dense/Tensordot/Const", "shape": [1], "dtype": "int32"}, {"name": "StatefulPartitionedCall/transformer/encoder/encoder_layer_0/multihead_self_attention/dense/Tensordot/axes", "shape": [1], "dtype": "int32"}, {"name": "StatefulPartitionedCall/transformer/encoder/encoder_layer_0/multihead_self_attention/dense/Tensordot/GatherV2_1/axis", "shape": [], "dtype": "int32"}, {"name": "StatefulPartitionedCall/transformer/encoder/encoder_layer_0/multihead_self_attention/dense/Tensordot/Const_1", "shape": [1], "dtype": "int32"}, {"name": "StatefulPartitionedCall/transformer/encoder/encoder_layer_0/multihead_self_attention/dense/Tensordot/ReadVariableOp", "shape": [8, 8], "dtype": "float32"}, {"name": "StatefulPartitionedCall/transformer/encoder/encoder_layer_0/multihead_self_attention/dense/Tensordot/free", "shape": [2], "dtype": "int32"}, {"name": "StatefulPartitionedCall/transformer/encoder/encoder_layer_0/multihead_self_attention/dense/Tensordot/GatherV2/axis", "shape": [], "dtype": "int32"}, {"name": "StatefulPartitionedCall/transformer/encoder/encoder_layer_0/multihead_self_attention/dense/Tensordot/Const_2", "shape": [1], "dtype": "int32"}, {"name": "StatefulPartitionedCall/transformer/encoder/encoder_layer_0/multihead_self_attention/dense/Tensordot/concat_1/axis", "shape": [], "dtype": "int32"}, {"name": "StatefulPartitionedCall/transformer/encoder/encoder_layer_0/multihead_self_attention/dense/BiasAdd/ReadVariableOp", "shape": [8], "dtype": "float32"}, {"name": "StatefulPartitionedCall/transformer/encoder/encoder_layer_0/multihead_self_attention/Reshape/shape/1", "shape": [], "dtype": "int32"}, {"name": "StatefulPartitionedCall/transformer/encoder/encoder_layer_0/multihead_self_attention/Reshape/shape/2", "shape": [], "dtype": "int32"}, {"name": "StatefulPartitionedCall/transformer/encoder/encoder_layer_0/multihead_self_attention/Reshape/shape/3", "shape": [], "dtype": "int32"}, {"name": "StatefulPartitionedCall/transformer/encoder/encoder_layer_0/multihead_self_attention/transpose/perm", "shape": [4], "dtype": "int32"}, {"name": "StatefulPartitionedCall/transformer/encoder/encoder_layer_0/multihead_self_attention/dense/Tensordot_1/Const", "shape": [1], "dtype": "int32"}, {"name": "StatefulPartitionedCall/transformer/encoder/encoder_layer_0/multihead_self_attention/dense/Tensordot_1/axes", "shape": [1], "dtype": "int32"}, {"name": "StatefulPartitionedCall/transformer/encoder/encoder_layer_0/multihead_self_attention/dense/Tensordot_1/GatherV2_1/axis", "shape": [], "dtype": "int32"}, {"name": "StatefulPartitionedCall/transformer/encoder/encoder_layer_0/multihead_self_attention/dense/Tensordot_1/Const_1", "shape": [1], "dtype": "int32"}, {"name": "StatefulPartitionedCall/transformer/encoder/encoder_layer_0/multihead_self_attention/dense/Tensordot_1/ReadVariableOp", "shape": [8, 8], "dtype": "float32"}, {"name": "StatefulPartitionedCall/transformer/encoder/encoder_layer_0/multihead_self_attention/dense/Tensordot_1/free", "shape": [2], "dtype": "int32"}, {"name": "StatefulPartitionedCall/transformer/encoder/encoder_layer_0/multihead_self_attention/dense/Tensordot_1/GatherV2/axis", "shape": [], "dtype": "int32"}, {"name": "StatefulPartitionedCall/transformer/encoder/encoder_layer_0/multihead_self_attention/dense/Tensordot_1/Const_2", "shape": [1], "dtype": "int32"}, {"name": "StatefulPartitionedCall/transformer/encoder/encoder_layer_0/multihead_self_attention/dense/Tensordot_1/concat_1/axis", "shape": [], "dtype": "int32"}, {"name": "StatefulPartitionedCall/transformer/encoder/encoder_layer_0/multihead_self_attention/dense/BiasAdd_1/ReadVariableOp", "shape": [8], "dtype": "float32"}, {"name": "StatefulPartitionedCall/transformer/encoder/encoder_layer_0/multihead_self_attention/Reshape_1/shape/1", "shape": [], "dtype": "int32"}, {"name": "StatefulPartitionedCall/transformer/encoder/encoder_layer_0/multihead_self_attention/Reshape_1/shape/2", "shape": [], "dtype": "int32"}, {"name": "StatefulPartitionedCall/transformer/encoder/encoder_layer_0/multihead_self_attention/Reshape_1/shape/3", "shape": [], "dtype": "int32"}, {"name": "StatefulPartitionedCall/transformer/encoder/encoder_layer_0/multihead_self_attention/transpose_1/perm", "shape": [4], "dtype": "int32"}, {"name": "StatefulPartitionedCall/transformer/encoder/encoder_layer_0/multihead_self_attention/strided_slice_1/stack", "shape": [1], "dtype": "int32"}, {"name": "StatefulPartitionedCall/transformer/encoder/encoder_layer_0/multihead_self_attention/strided_slice_1/stack_1", "shape": [1], "dtype": "int32"}, {"name": "StatefulPartitionedCall/transformer/encoder/encoder_layer_0/multihead_self_attention/strided_slice_1/stack_2", "shape": [1], "dtype": "int32"}, {"name": "StatefulPartitionedCall/transformer/padding_mask/Equal/y", "shape": [], "dtype": "float32"}, {"name": "StatefulPartitionedCall/transformer/padding_mask/strided_slice/stack", "shape": [4], "dtype": "int32"}, {"name": "StatefulPartitionedCall/transformer/padding_mask/strided_slice/stack_1", "shape": [4], "dtype": "int32"}, {"name": "StatefulPartitionedCall/transformer/padding_mask/strided_slice/stack_2", "shape": [4], "dtype": "int32"}, {"name": "StatefulPartitionedCall/transformer/encoder/encoder_layer_0/multihead_self_attention/mul/y", "shape": [], "dtype": "float32"}, {"name": "StatefulPartitionedCall/transformer/encoder/encoder_layer_0/multihead_self_attention/dense/Tensordot_2/Const", "shape": [1], "dtype": "int32"}, {"name": "StatefulPartitionedCall/transformer/encoder/encoder_layer_0/multihead_self_attention/dense/Tensordot_2/axes", "shape": [1], "dtype": "int32"}, {"name": "StatefulPartitionedCall/transformer/encoder/encoder_layer_0/multihead_self_attention/dense/Tensordot_2/GatherV2_1/axis", "shape": [], "dtype": "int32"}, {"name": "StatefulPartitionedCall/transformer/encoder/encoder_layer_0/multihead_self_attention/dense/Tensordot_2/Const_1", "shape": [1], "dtype": "int32"}, {"name": "StatefulPartitionedCall/transformer/encoder/encoder_layer_0/multihead_self_attention/dense/Tensordot_2/ReadVariableOp", "shape": [8, 8], "dtype": "float32"}, {"name": "StatefulPartitionedCall/transformer/encoder/encoder_layer_0/multihead_self_attention/dense/Tensordot_2/free", "shape": [2], "dtype": "int32"}, {"name": "StatefulPartitionedCall/transformer/encoder/encoder_layer_0/multihead_self_attention/dense/Tensordot_2/GatherV2/axis", "shape": [], "dtype": "int32"}, {"name": "StatefulPartitionedCall/transformer/encoder/encoder_layer_0/multihead_self_attention/dense/Tensordot_2/Const_2", "shape": [1], "dtype": "int32"}, {"name": "StatefulPartitionedCall/transformer/encoder/encoder_layer_0/multihead_self_attention/dense/Tensordot_2/concat_1/axis", "shape": [], "dtype": "int32"}, {"name": "StatefulPartitionedCall/transformer/encoder/encoder_layer_0/multihead_self_attention/dense/BiasAdd_2/ReadVariableOp", "shape": [8], "dtype": "float32"}, {"name": "StatefulPartitionedCall/transformer/encoder/encoder_layer_0/multihead_self_attention/Reshape_2/shape/1", "shape": [], "dtype": "int32"}, {"name": "StatefulPartitionedCall/transformer/encoder/encoder_layer_0/multihead_self_attention/Reshape_2/shape/2", "shape": [], "dtype": "int32"}, {"name": "StatefulPartitionedCall/transformer/encoder/encoder_layer_0/multihead_self_attention/Reshape_2/shape/3", "shape": [], "dtype": "int32"}, {"name": "StatefulPartitionedCall/transformer/encoder/encoder_layer_0/multihead_self_attention/transpose_2/perm", "shape": [4], "dtype": "int32"}, {"name": "StatefulPartitionedCall/transformer/encoder/encoder_layer_0/multihead_self_attention/transpose_3/perm", "shape": [4], "dtype": "int32"}, {"name": "unknown_1", "shape": [1, 30522, 8], "dtype": "float32"}, {"name": "StatefulPartitionedCall/transformer/encoder/positional_encoding/strided_slice_1/stack", "shape": [3], "dtype": "int32"}, {"name": "StatefulPartitionedCall/transformer/encoder/positional_encoding/strided_slice_1/stack_1/0", "shape": [], "dtype": "int32"}, {"name": "unknown", "shape": [30522, 8], "dtype": "float32"}, {"name": "StatefulPartitionedCall/transformer/encoder/embedding/embedding_lookup/axis", "shape": [], "dtype": "int32"}, {"name": "unknown_0", "shape": [], "dtype": "float32"}, {"name": "StatefulPartitionedCall/transformer/encoder/positional_encoding/strided_slice/stack", "shape": [1], "dtype": "int32"}, {"name": "StatefulPartitionedCall/transformer/encoder/positional_encoding/strided_slice/stack_1", "shape": [1], "dtype": "int32"}, {"name": "StatefulPartitionedCall/transformer/encoder/positional_encoding/strided_slice/stack_2", "shape": [1], "dtype": "int32"}, {"name": "StatefulPartitionedCall/transformer/encoder/positional_encoding/strided_slice_1/stack_1/2", "shape": [], "dtype": "int32"}, {"name": "StatefulPartitionedCall/transformer/encoder/positional_encoding/strided_slice_1/stack_2", "shape": [3], "dtype": "int32"}, {"name": "StatefulPartitionedCall/transformer/encoder/encoder_layer_0/multihead_self_attention/strided_slice/stack", "shape": [1], "dtype": "int32"}, {"name": "StatefulPartitionedCall/transformer/encoder/encoder_layer_0/multihead_self_attention/strided_slice/stack_1", "shape": [1], "dtype": "int32"}, {"name": "StatefulPartitionedCall/transformer/encoder/encoder_layer_0/multihead_self_attention/strided_slice/stack_2", "shape": [1], "dtype": "int32"}, {"name": "StatefulPartitionedCall/transformer/encoder/encoder_layer_0/multihead_self_attention/Reshape_3/shape/1", "shape": [], "dtype": "int32"}, {"name": "StatefulPartitionedCall/transformer/encoder/encoder_layer_0/multihead_self_attention/Reshape_3/shape/2", "shape": [], "dtype": "int32"}, {"name": "StatefulPartitionedCall/transformer/encoder/encoder_layer_0/multihead_self_attention/dense_3/Tensordot/free", "shape": [2], "dtype": "int32"}, {"name": "StatefulPartitionedCall/transformer/encoder/encoder_layer_0/multihead_self_attention/dense_3/Tensordot/GatherV2/axis", "shape": [], "dtype": "int32"}, {"name": "StatefulPartitionedCall/transformer/encoder/encoder_layer_0/multihead_self_attention/dense_3/Tensordot/Const_2", "shape": [1], "dtype": "int32"}, {"name": "StatefulPartitionedCall/transformer/encoder/encoder_layer_0/multihead_self_attention/dense_3/Tensordot/concat_1/axis", "shape": [], "dtype": "int32"}, {"name": "StatefulPartitionedCall/transformer/encoder/encoder_layer_0/multihead_self_attention/dense_3/BiasAdd/ReadVariableOp", "shape": [8], "dtype": "float32"}, {"name": "StatefulPartitionedCall/transformer/encoder/encoder_layer_0/layer_normalization/moments/mean/reduction_indices", "shape": [1], "dtype": "int32"}, {"name": "StatefulPartitionedCall/transformer/encoder/encoder_layer_0/layer_normalization/moments/variance/reduction_indices", "shape": [1], "dtype": "int32"}, {"name": "StatefulPartitionedCall/transformer/encoder/encoder_layer_0/layer_normalization/batchnorm/add/y", "shape": [], "dtype": "float32"}, {"name": "StatefulPartitionedCall/transformer/encoder/encoder_layer_0/layer_normalization/batchnorm/mul/ReadVariableOp", "shape": [8], "dtype": "float32"}, {"name": "StatefulPartitionedCall/transformer/encoder/encoder_layer_0/dense_4/Tensordot/free", "shape": [2], "dtype": "int32"}, {"name": "StatefulPartitionedCall/transformer/encoder/encoder_layer_0/dense_4/Tensordot/GatherV2/axis", "shape": [], "dtype": "int32"}, {"name": "StatefulPartitionedCall/transformer/encoder/encoder_layer_0/dense_4/Tensordot/Const_2", "shape": [1], "dtype": "int32"}, {"name": "StatefulPartitionedCall/transformer/encoder/encoder_layer_0/dense_4/Tensordot/concat_1/axis", "shape": [], "dtype": "int32"}, {"name": "StatefulPartitionedCall/transformer/encoder/encoder_layer_0/dense_4/BiasAdd/ReadVariableOp", "shape": [8], "dtype": "float32"}, {"name": "StatefulPartitionedCall/transformer/encoder/encoder_layer_0/dense_5/Tensordot/free", "shape": [2], "dtype": "int32"}, {"name": "StatefulPartitionedCall/transformer/encoder/encoder_layer_0/dense_5/Tensordot/GatherV2/axis", "shape": [], "dtype": "int32"}, {"name": "StatefulPartitionedCall/transformer/encoder/encoder_layer_0/dense_5/Tensordot/Const_2", "shape": [1], "dtype": "int32"}, {"name": "StatefulPartitionedCall/transformer/encoder/encoder_layer_0/dense_5/Tensordot/concat_1/axis", "shape": [], "dtype": "int32"}, {"name": "StatefulPartitionedCall/transformer/encoder/encoder_layer_0/dense_5/BiasAdd/ReadVariableOp", "shape": [8], "dtype": "float32"}, {"name": "StatefulPartitionedCall/transformer/encoder/encoder_layer_0/layer_normalization_1/moments/mean/reduction_indices", "shape": [1], "dtype": "int32"}, {"name": "StatefulPartitionedCall/transformer/encoder/encoder_layer_0/layer_normalization_1/moments/variance/reduction_indices", "shape": [1], "dtype": "int32"}, {"name": "StatefulPartitionedCall/transformer/encoder/encoder_layer_0/layer_normalization_1/batchnorm/add/y", "shape": [], "dtype": "float32"}, {"name": "StatefulPartitionedCall/transformer/encoder/encoder_layer_0/layer_normalization_1/batchnorm/mul/ReadVariableOp", "shape": [8], "dtype": "float32"}, {"name": "StatefulPartitionedCall/transformer/dense_6/Tensordot/free", "shape": [2], "dtype": "int32"}, {"name": "StatefulPartitionedCall/transformer/dense_6/Tensordot/GatherV2/axis", "shape": [], "dtype": "int32"}, {"name": "StatefulPartitionedCall/transformer/dense_6/Tensordot/Const_2", "shape": [1], "dtype": "int32"}, {"name": "StatefulPartitionedCall/transformer/dense_6/Tensordot/concat_1/axis", "shape": [], "dtype": "int32"}, {"name": "StatefulPartitionedCall/transformer/dense_6/BiasAdd/ReadVariableOp", "shape": [8], "dtype": "float32"}, {"name": "StatefulPartitionedCall/transformer/global_average_pooling1d/Mean/reduction_indices", "shape": [], "dtype": "int32"}, {"name": "StatefulPartitionedCall/transformer/outputs/MatMul/ReadVariableOp", "shape": [8, 7], "dtype": "float32"}, {"name": "StatefulPartitionedCall/transformer/outputs/BiasAdd/ReadVariableOp", "shape": [7], "dtype": "float32"}]}]}